NeuralNet/NN/.net.model (torch_old, 394923 bytes, 8 tensors)

layer1.weight f4 [32, 3072]
0.013682713 -0.00069442036 0.0077955984 -0.015057204 -0.003157399 -0.009313836 0.017491333 0.002921811
-0.000943276 -0.0056369184 0.006916439 -0.0052670045 -0.01406106 0.0062889312 -0.013030369 -0.0059965854
-0.015534283 0.011234327 0.010566364 0.005479459 0.00876937 -0.01480103 0.009450074 0.006019305
-0.017656693 0.017488992 -0.012268739 0.0069593494 -0.0155874435 0.010108084 0.006706862 0.0060521546
-0.014917585 -0.015720954 0.01082083 0.011279969 -0.015987612 -0.0068517644 -0.0002010659 0.0018952835
-0.013992903 -0.005688826 0.010007512 0.0011591298 0.011218958 -0.007594544 0.0002925611 0.001162257
-0.0017851158 -0.0090177115 -0.0043471414 0.0060595335 0.0051083127 0.009124553 -0.006337972 0.013904306
0.013002225 -0.011230796 0.014375933 0.002144496 -0.017480202 -0.015795518 -0.014230705 0.014724811
-0.012726527 0.011845761 0.0143638095 0.0018566828 -0.012995274 0.016855985 -0.004348523 0.0133671155
0.013594655 -0.0032260818 -0.016120866 0.011350976 -0.004588709 0.0014508277 0.01782508 0.013021362
0.0017729722 -0.01143435 0.0006552752 -0.011070701 0.0060592354 -0.01471137 -0.006869151 0.012864012
-0.011052417 -0.009825422 0.009655555 0.013281872 -0.001631951 -0.010972816 0.013131808 0.00050083996
-0.0167793 0.013141666 -0.0041856314 -0.004654028 0.012193922 -0.017932137 0.0021365953 0.002865584
-0.013062662 -0.010467009 -0.000154212 -0.012261546 0.015911754 0.015801951 0.015041504 -0.01132708
0.017301224 0.0077889464 0.0036819829 -0.0179717 -0.0039679045 -0.01684586 -0.0019054391 -0.0046873456
0.0050924085 0.00031832495 0.015239083 -0.011753548 0.013531657 8.531665e-05 -0.011378688 0.006758183
-0.009673383 0.01588556 -0.011093701 -0.011276465 -0.01746656 0.0045545637 0.010538959 0.005771609
-0.008042862 0.0075702886 -0.017093057 0.011267147 0.0010493483 0.0030933674 0.0074376026 -0.0004898934
-0.006586084 0.016058398 0.014369908 0.017428912 -0.003049301 0.013993571 -0.00040960617 0.0061095296
0.0031333202 -0.0065729152 0.006880402 -0.0037205417 0.0066808895 -0.009781116 0.015077571 0.012525289
0.00230154 0.007635647 -0.014883174 0.008131875 -8.754468e-05 0.016289553 0.01074263 -0.007946237
0.013146441 -0.017179135 0.010593812 -0.01807902 0.003769294 -0.010096515 0.0018097251 -0.008233347
-0.00894571 -0.0109264245 -0.007117368 0.0045960573 0.01774114 0.0070161154 -0.0066577857 -0.0032621266
0.0067476965 -0.011323037 0.008486066 -0.014929209 -0.012550148 6.0372433e-05 0.0026222325 0.0028925017
0.017191127 0.011721684 -0.016002547 0.00078277395 -0.00029504692 -0.006530791 -0.008788685 -0.010297644
-0.0064579844 -0.016943388 -0.016984748 0.012676054 -0.014507567 -0.005967202 0.016616015 0.0067467475
-0.0026982422 0.011641443 -0.0068129506 -0.0032238483 0.009437947 -0.011145761 -0.0018549521 -0.014030112
-0.017948749 -0.0022085595 -0.007425351 -0.009750831 0.014478247 0.012715617 0.010688582 0.00052412756
0.0013568398 -0.0047999937 -0.009533077 -0.004628372 0.0035101671 0.010947518 -0.0143221775 0.017004343
0.015092809 0.00047101747 0.016350092 0.010182024 0.008085117 -0.0029689292 0.012795314 0.013950495
0.012114415 -0.010277285 -0.010096544 -0.017839873 -0.01600726 0.012543865 0.01575979 0.015967747
-0.0075784787 0.0030782025 -0.0056373123 -0.008121673 0.0083922455 0.01573609 0.005189114 -0.011986454
00000000: 752d 603c c309 36ba 3872 ff3b 7eb2 76bc
00000010: 5dec 4ebb 0f99 18bc fc49 8f3c db7b 3f3b
00000020: 2e46 77ba e6b5 b8bb 4ca3 e23b d696 acbb
00000030: 5c60 66bc 6113 ce3b 547d 55bc 017f c4bb
00000040: 8183 7ebc 2f10 383c 8b1e 2d3c 098d b33b
00000050: 67ad 0f3c 0580 72bc 7cd4 1a3c 973d c53b
00000060: c5a4 90bc 1345 8f3c d202 49bc 410b e43b
00000070: 7a62 7fbc 619c 253c 3cc5 db3b 2751 c63b
00000080: e368 74bc 3bc9 80bc da49 313c 9ecf 383c
00000090: 74f8 82bc c484 e0bb 37d5 52b9 296b f83a
000000a0: 7d42 65bc 5569 babb 8cf6 233c f1ed 973a
000000b0: b8cf 373c a7db f8bb e362 9939 e056 983a
000000c0: 8cfa e9ba 06bf 13bc 7772 8ebb 0d8f c63b
000000d0: a263 a73b 267f 153c c3ae cfbb e3ce 633c
000000e0: 4907 553c 5f01 38bc 0989 6b3c ac8a 0c3b
000000f0: a432 8fbc 9a65 81bc e727 69bc 5540 713c
00000100: ec82 50bc b914 423c 2f56 6b3c f05b f33a
00000110: 21ea 54bc 9015 8a3c 0e7e 8ebb bf01 5b3c
00000120: 1ebc 5e3c ac6c 53bb e80f 84bc 72f9 393c
00000130: e25c 96bb b329 be3a e705 923c 8d57 553c
00000140: 1363 e83a 2457 3bbc c6c6 2b3a e361 35bc
00000150: 8d8c c63b f507 71bc 9d16 e1bb 94c3 523c
00000160: 3215 35bc cffa 20bc 5532 1e3c 359c 593c
00000170: 30e7 d5ba 53c7 33bc cb26 573c cd4a 033a
00000180: be74 89bc 2450 573c 9f27 89bb d180 98bb
00000190: 04c9 473c 6be6 92bc 1f06 0c3b 86cc 3b3b
000001a0: c704 56bc d17d 2bbc f8b3 21b9 a7e4 48bc
000001b0: 5e59 823c 1873 813c a470 763c 3895 39bc
000001c0: 4cbb 8d3c 6b3a ff3b 6c4d 713b 6339 93bc
000001d0: 3205 82bb 5400 8abc edbf f9ba 4e98 99bb
000001e0: 38de a63b dae4 a639 59ad 793c f491 40bc
000001f0: e2b3 5d3c 07ec b238 ad6d 3abc bf73 dd3b
00000200: 1c7d 1ebc 6f22 823c 5bc2 35bc ecc0 38bc
00000210: 0816 8fbc 733e 953b 99ab 2c3c c41f bd3b
00000220: 35c6 03bc 2f10 f83b bd06 8cbc d799 383c
00000230: 498a 893a 18ba 4a3b 22b7 f33b 316c 00ba
00000240: 14d0 d7bb e78c 833c c36f 6b3c 14c7 8e3c
00000250: c8d6 47bb 4a45 653c 69c0 d6b9 7332 c83b
00000260: 6458 4d3b 9c61 d7bb ff74 e13b 55d4 73bb
00000270: 5deb da3b f940 20bc eb07 773c df36 4d3c
00000280: 6fd5 163b 7334 fa3b 8ed8 73bc 8e3b 053c
00000290: 3198 b7b8 ab71 853c db01 303c ef30 02bc
000002a0: 2c64 573c 42bb 8cbc ab91 2d3c 741a 94bc
000002b0: 4206 773b da6b 25bc 4c34 ed3a 29e5 06bc
000002c0: 0791 12bc bf04 33bc cf38 e9bb 869a 963b
000002d0: de55 913c 71e7 e53b 8e29 dabb 67c9 55bb
000002e0: c81b dd3b 4284 39bc 2409 0b3c a499 74bc
000002f0: 239f 4dbc 6838 7d38 c3d9 2b3b 2090 3d3b
00000300: 68d4 8c3c 4e0c 403c c617 83bc 1233 4d3a
00000310: 87b0 9ab9 3f00 d6bb 6bfe 0fbc 73b7 28bc
00000320: 809d d3bb dccc 8abc 9923 8bbc 39af 4f3c
00000330: 25b1 6dbc 8588 c3bb 4f1e 883c d213 dd3b
00000340: fed4 30bb c0bb 3e3c 2c3f dfbb 3347 53bb
00000350: 9ea1 1a3c b69c 36bc dd21 f3ba 8ede 65bc
00000360: 4109 93bc 7bbd 10bb 5c50 f3bb f3c1 1fbc
00000370: 2b36 6d3c 2a55 503c 2a1f 2f3c 9b65 093a
00000380: fdd7 b13a 4449 9dbb 9f30 1cbc 99a9 97bb
00000390: d50a 663b 385d 333c 91a7 6abc b14c 8b3c
000003a0: d447 773c e5f2 f639 a1f0 853c 81d2 263c
000003b0: 7077 043c 5e92 42bb 70a3 513c 9e90 643c
000003c0: 8a7b 463c 0f62 28bc fa6b 25bc ed24 92bc
000003d0: a821 83bc c884 4d3c ad1a 813c cbce 823c
000003e0: e354 f8bb abbb 493b 34b9 b8bb c410 05bc
000003f0: a17f 093c f9e8 803c 7109 aa3b d562 44bc

layer1.bias f4 [32]
-0.013156092 -0.016098283 -0.016993608 0.0091484785 -0.0044556507 -0.0013106909 0.01632554 -0.0015116816
0.009139122 0.0045431876 -0.0018334499 -0.0015997606 0.014227497 0.0047153467 0.0027105464 -0.01692857
-0.008667746 0.00064363395 0.006266666 -0.013272674 -0.006349266 0.009128213 0.011243485 -0.011088828
0.0113559775 0.00083196943 -0.016562015 -0.00578961 0.005631257 0.013400862 0.011790388 0.009081166
00000000: a68c 57bc 8ce0 83bc 2e36 8bbc 80e3 153c
00000010: b500 92bb 7dcb abba 24bd 853c 9e23 c6ba
00000020: 42bc 153c 05df 943b 5f50 f0ba 0faf d1ba
00000030: 731a 693c 3283 9a3b 6ca3 313b c9ad 8abc
00000040: 2903 0ebc 8bb9 283a 9b58 cd3b a175 59bc
00000050: 810d d0bb 808e 153c 9836 383c eaad 35bc
00000060: 6c0e 3a3c 8618 5a3a 10ad 87bc c5b6 bdbb
00000070: 6886 b83b 4a8f 5b3c 792c 413c 2cc9 143c

layer2.weight f4 [2, 32]
-0.08435487 -0.072281234 0.16988093 0.09256714 -0.10088459 0.1687983 0.11258904 0.14267068
0.15261903 0.031674564 -0.09626235 0.07452578 0.06142712 -0.11101711 -0.0019855367 -0.053225633
0.07319818 0.025436662 -0.101156406 -0.018255193 0.09015245 0.003762726 -0.16198637 0.13531902
0.06558564 -0.10840337 0.14648816 -0.047733586 0.09210718 0.1430873 0.07302215 0.15452561
-0.064291894 -0.049229838 0.11113727 -0.08990773 0.039182037 0.08180731 -0.15758495 -0.08828991
0.046678755 -0.14904737 0.027710227 0.023753162 0.08979106 -0.11052573 -0.14826754 -0.13186088
-0.02758832 -0.14589426 0.051711038 0.12930922 0.045203965 0.15300344 0.035188667 -0.13981707
0.04497347 0.13130158 0.07032955 0.088066876 -0.10886974 -0.121235594 0.0056829304 -0.11672904
00000000: 3fc2 acbd 2f08 94bd 44f5 2d3e d793 bd3d
00000010: 949c cebd 76d9 2c3e 1595 e63d 4318 123e
00000020: 2a48 1c3e 30bd 013d 3225 c5bd f9a0 983d
00000030: 019b 7b3d f05c e3bd c71f 02bb 1f03 5abd
00000040: ede8 953d 8c60 d03c 172b cfbd ea8b 95bc
00000050: d9a1 b83d 1198 763b c1df 25be 1291 0a3e
00000060: c451 863d 9602 debd fe00 163e 4b84 43bd
00000070: b0a2 bc3d 7a85 123e a38c 953d f63b 1e3e
00000080: 78ab 83bd 3aa5 49bd f09b e33d 8b21 b8bd
00000090: 587d 203d 978a a73d f35d 21be 57d1 b4bd
000000a0: 3932 3f3d e09f 18be 8f00 e33c fe95 c23c
000000b0: 60e4 b73d 505b e2bd 72d3 17be 8a06 07be
000000c0: e700 e2bc 4e65 15be f4ce 533d a369 043e
000000d0: cb27 393d efac 1c3e fe21 103d 352c 0fbe
000000e0: 1a36 383d ec73 063e f008 903d 685c b43d
000000f0: 19f7 debd 5e4a f8bd e037 ba3b a30f efbd

layer2.bias f4 [2]
-0.028648948 -0.016195148
00000000: 33b1 eabc b0ab 84bc

model.0.weight f4 [32, 3072]
0.013682713 -0.00069442036 0.0077955984 -0.015057204 -0.003157399 -0.009313836 0.017491333 0.002921811
-0.000943276 -0.0056369184 0.006916439 -0.0052670045 -0.01406106 0.0062889312 -0.013030369 -0.0059965854
-0.015534283 0.011234327 0.010566364 0.005479459 0.00876937 -0.01480103 0.009450074 0.006019305
-0.017656693 0.017488992 -0.012268739 0.0069593494 -0.0155874435 0.010108084 0.006706862 0.0060521546
-0.014917585 -0.015720954 0.01082083 0.011279969 -0.015987612 -0.0068517644 -0.0002010659 0.0018952835
-0.013992903 -0.005688826 0.010007512 0.0011591298 0.011218958 -0.007594544 0.0002925611 0.001162257
-0.0017851158 -0.0090177115 -0.0043471414 0.0060595335 0.0051083127 0.009124553 -0.006337972 0.013904306
0.013002225 -0.011230796 0.014375933 0.002144496 -0.017480202 -0.015795518 -0.014230705 0.014724811
-0.012726527 0.011845761 0.0143638095 0.0018566828 -0.012995274 0.016855985 -0.004348523 0.0133671155
0.013594655 -0.0032260818 -0.016120866 0.011350976 -0.004588709 0.0014508277 0.01782508 0.013021362
0.0017729722 -0.01143435 0.0006552752 -0.011070701 0.0060592354 -0.01471137 -0.006869151 0.012864012
-0.011052417 -0.009825422 0.009655555 0.013281872 -0.001631951 -0.010972816 0.013131808 0.00050083996
-0.0167793 0.013141666 -0.0041856314 -0.004654028 0.012193922 -0.017932137 0.0021365953 0.002865584
-0.013062662 -0.010467009 -0.000154212 -0.012261546 0.015911754 0.015801951 0.015041504 -0.01132708
0.017301224 0.0077889464 0.0036819829 -0.0179717 -0.0039679045 -0.01684586 -0.0019054391 -0.0046873456
0.0050924085 0.00031832495 0.015239083 -0.011753548 0.013531657 8.531665e-05 -0.011378688 0.006758183
-0.009673383 0.01588556 -0.011093701 -0.011276465 -0.01746656 0.0045545637 0.010538959 0.005771609
-0.008042862 0.0075702886 -0.017093057 0.011267147 0.0010493483 0.0030933674 0.0074376026 -0.0004898934
-0.006586084 0.016058398 0.014369908 0.017428912 -0.003049301 0.013993571 -0.00040960617 0.0061095296
0.0031333202 -0.0065729152 0.006880402 -0.0037205417 0.0066808895 -0.009781116 0.015077571 0.012525289
0.00230154 0.007635647 -0.014883174 0.008131875 -8.754468e-05 0.016289553 0.01074263 -0.007946237
0.013146441 -0.017179135 0.010593812 -0.01807902 0.003769294 -0.010096515 0.0018097251 -0.008233347
-0.00894571 -0.0109264245 -0.007117368 0.0045960573 0.01774114 0.0070161154 -0.0066577857 -0.0032621266
0.0067476965 -0.011323037 0.008486066 -0.014929209 -0.012550148 6.0372433e-05 0.0026222325 0.0028925017
0.017191127 0.011721684 -0.016002547 0.00078277395 -0.00029504692 -0.006530791 -0.008788685 -0.010297644
-0.0064579844 -0.016943388 -0.016984748 0.012676054 -0.014507567 -0.005967202 0.016616015 0.0067467475
-0.0026982422 0.011641443 -0.0068129506 -0.0032238483 0.009437947 -0.011145761 -0.0018549521 -0.014030112
-0.017948749 -0.0022085595 -0.007425351 -0.009750831 0.014478247 0.012715617 0.010688582 0.00052412756
0.0013568398 -0.0047999937 -0.009533077 -0.004628372 0.0035101671 0.010947518 -0.0143221775 0.017004343
0.015092809 0.00047101747 0.016350092 0.010182024 0.008085117 -0.0029689292 0.012795314 0.013950495
0.012114415 -0.010277285 -0.010096544 -0.017839873 -0.01600726 0.012543865 0.01575979 0.015967747
-0.0075784787 0.0030782025 -0.0056373123 -0.008121673 0.0083922455 0.01573609 0.005189114 -0.011986454
00000000: 752d 603c c309 36ba 3872 ff3b 7eb2 76bc
00000010: 5dec 4ebb 0f99 18bc fc49 8f3c db7b 3f3b
00000020: 2e46 77ba e6b5 b8bb 4ca3 e23b d696 acbb
00000030: 5c60 66bc 6113 ce3b 547d 55bc 017f c4bb
00000040: 8183 7ebc 2f10 383c 8b1e 2d3c 098d b33b
00000050: 67ad 0f3c 0580 72bc 7cd4 1a3c 973d c53b
00000060: c5a4 90bc 1345 8f3c d202 49bc 410b e43b
00000070: 7a62 7fbc 619c 253c 3cc5 db3b 2751 c63b
00000080: e368 74bc 3bc9 80bc da49 313c 9ecf 383c
00000090: 74f8 82bc c484 e0bb 37d5 52b9 296b f83a
000000a0: 7d42 65bc 5569 babb 8cf6 233c f1ed 973a
000000b0: b8cf 373c a7db f8bb e362 9939 e056 983a
000000c0: 8cfa e9ba 06bf 13bc 7772 8ebb 0d8f c63b
000000d0: a263 a73b 267f 153c c3ae cfbb e3ce 633c
000000e0: 4907 553c 5f01 38bc 0989 6b3c ac8a 0c3b
000000f0: a432 8fbc 9a65 81bc e727 69bc 5540 713c
00000100: ec82 50bc b914 423c 2f56 6b3c f05b f33a
00000110: 21ea 54bc 9015 8a3c 0e7e 8ebb bf01 5b3c
00000120: 1ebc 5e3c ac6c 53bb e80f 84bc 72f9 393c
00000130: e25c 96bb b329 be3a e705 923c 8d57 553c
00000140: 1363 e83a 2457 3bbc c6c6 2b3a e361 35bc
00000150: 8d8c c63b f507 71bc 9d16 e1bb 94c3 523c
00000160: 3215 35bc cffa 20bc 5532 1e3c 359c 593c
00000170: 30e7 d5ba 53c7 33bc cb26 573c cd4a 033a
00000180: be74 89bc 2450 573c 9f27 89bb d180 98bb
00000190: 04c9 473c 6be6 92bc 1f06 0c3b 86cc 3b3b
000001a0: c704 56bc d17d 2bbc f8b3 21b9 a7e4 48bc
000001b0: 5e59 823c 1873 813c a470 763c 3895 39bc
000001c0: 4cbb 8d3c 6b3a ff3b 6c4d 713b 6339 93bc
000001d0: 3205 82bb 5400 8abc edbf f9ba 4e98 99bb
000001e0: 38de a63b dae4 a639 59ad 793c f491 40bc
000001f0: e2b3 5d3c 07ec b238 ad6d 3abc bf73 dd3b
00000200: 1c7d 1ebc 6f22 823c 5bc2 35bc ecc0 38bc
00000210: 0816 8fbc 733e 953b 99ab 2c3c c41f bd3b
00000220: 35c6 03bc 2f10 f83b bd06 8cbc d799 383c
00000230: 498a 893a 18ba 4a3b 22b7 f33b 316c 00ba
00000240: 14d0 d7bb e78c 833c c36f 6b3c 14c7 8e3c
00000250: c8d6 47bb 4a45 653c 69c0 d6b9 7332 c83b
00000260: 6458 4d3b 9c61 d7bb ff74 e13b 55d4 73bb
00000270: 5deb da3b f940 20bc eb07 773c df36 4d3c
00000280: 6fd5 163b 7334 fa3b 8ed8 73bc 8e3b 053c
00000290: 3198 b7b8 ab71 853c db01 303c ef30 02bc
000002a0: 2c64 573c 42bb 8cbc ab91 2d3c 741a 94bc
000002b0: 4206 773b da6b 25bc 4c34 ed3a 29e5 06bc
000002c0: 0791 12bc bf04 33bc cf38 e9bb 869a 963b
000002d0: de55 913c 71e7 e53b 8e29 dabb 67c9 55bb
000002e0: c81b dd3b 4284 39bc 2409 0b3c a499 74bc
000002f0: 239f 4dbc 6838 7d38 c3d9 2b3b 2090 3d3b
00000300: 68d4 8c3c 4e0c 403c c617 83bc 1233 4d3a
00000310: 87b0 9ab9 3f00 d6bb 6bfe 0fbc 73b7 28bc
00000320: 809d d3bb dccc 8abc 9923 8bbc 39af 4f3c
00000330: 25b1 6dbc 8588 c3bb 4f1e 883c d213 dd3b
00000340: fed4 30bb c0bb 3e3c 2c3f dfbb 3347 53bb
00000350: 9ea1 1a3c b69c 36bc dd21 f3ba 8ede 65bc
00000360: 4109 93bc 7bbd 10bb 5c50 f3bb f3c1 1fbc
00000370: 2b36 6d3c 2a55 503c 2a1f 2f3c 9b65 093a
00000380: fdd7 b13a 4449 9dbb 9f30 1cbc 99a9 97bb
00000390: d50a 663b 385d 333c 91a7 6abc b14c 8b3c
000003a0: d447 773c e5f2 f639 a1f0 853c 81d2 263c
000003b0: 7077 043c 5e92 42bb 70a3 513c 9e90 643c
000003c0: 8a7b 463c 0f62 28bc fa6b 25bc ed24 92bc
000003d0: a821 83bc c884 4d3c ad1a 813c cbce 823c
000003e0: e354 f8bb abbb 493b 34b9 b8bb c410 05bc
000003f0: a17f 093c f9e8 803c 7109 aa3b d562 44bc

model.0.bias f4 [32]
-0.013156092 -0.016098283 -0.016993608 0.0091484785 -0.0044556507 -0.0013106909 0.01632554 -0.0015116816
0.009139122 0.0045431876 -0.0018334499 -0.0015997606 0.014227497 0.0047153467 0.0027105464 -0.01692857
-0.008667746 0.00064363395 0.006266666 -0.013272674 -0.006349266 0.009128213 0.011243485 -0.011088828
0.0113559775 0.00083196943 -0.016562015 -0.00578961 0.005631257 0.013400862 0.011790388 0.009081166
00000000: a68c 57bc 8ce0 83bc 2e36 8bbc 80e3 153c
00000010: b500 92bb 7dcb abba 24bd 853c 9e23 c6ba
00000020: 42bc 153c 05df 943b 5f50 f0ba 0faf d1ba
00000030: 731a 693c 3283 9a3b 6ca3 313b c9ad 8abc
00000040: 2903 0ebc 8bb9 283a 9b58 cd3b a175 59bc
00000050: 810d d0bb 808e 153c 9836 383c eaad 35bc
00000060: 6c0e 3a3c 8618 5a3a 10ad 87bc c5b6 bdbb
00000070: 6886 b83b 4a8f 5b3c 792c 413c 2cc9 143c

model.2.weight f4 [2, 32]
-0.08435487 -0.072281234 0.16988093 0.09256714 -0.10088459 0.1687983 0.11258904 0.14267068
0.15261903 0.031674564 -0.09626235 0.07452578 0.06142712 -0.11101711 -0.0019855367 -0.053225633
0.07319818 0.025436662 -0.101156406 -0.018255193 0.09015245 0.003762726 -0.16198637 0.13531902
0.06558564 -0.10840337 0.14648816 -0.047733586 0.09210718 0.1430873 0.07302215 0.15452561
-0.064291894 -0.049229838 0.11113727 -0.08990773 0.039182037 0.08180731 -0.15758495 -0.08828991
0.046678755 -0.14904737 0.027710227 0.023753162 0.08979106 -0.11052573 -0.14826754 -0.13186088
-0.02758832 -0.14589426 0.051711038 0.12930922 0.045203965 0.15300344 0.035188667 -0.13981707
0.04497347 0.13130158 0.07032955 0.088066876 -0.10886974 -0.121235594 0.0056829304 -0.11672904
00000000: 3fc2 acbd 2f08 94bd 44f5 2d3e d793 bd3d
00000010: 949c cebd 76d9 2c3e 1595 e63d 4318 123e
00000020: 2a48 1c3e 30bd 013d 3225 c5bd f9a0 983d
00000030: 019b 7b3d f05c e3bd c71f 02bb 1f03 5abd
00000040: ede8 953d 8c60 d03c 172b cfbd ea8b 95bc
00000050: d9a1 b83d 1198 763b c1df 25be 1291 0a3e
00000060: c451 863d 9602 debd fe00 163e 4b84 43bd
00000070: b0a2 bc3d 7a85 123e a38c 953d f63b 1e3e
00000080: 78ab 83bd 3aa5 49bd f09b e33d 8b21 b8bd
00000090: 587d 203d 978a a73d f35d 21be 57d1 b4bd
000000a0: 3932 3f3d e09f 18be 8f00 e33c fe95 c23c
000000b0: 60e4 b73d 505b e2bd 72d3 17be 8a06 07be
000000c0: e700 e2bc 4e65 15be f4ce 533d a369 043e
000000d0: cb27 393d efac 1c3e fe21 103d 352c 0fbe
000000e0: 1a36 383d ec73 063e f008 903d 685c b43d
000000f0: 19f7 debd 5e4a f8bd e037 ba3b a30f efbd

model.2.bias f4 [2]
-0.028648948 -0.016195148
00000000: 33b1 eabc b0ab 84bc
