NeuralNet/NN/net.model (torch_old, 209136 bytes, 30 tensors)

weight f4 [6, 3, 5, 5]
000000 0e c9 47 ba 24 fe 7d 3d b8 1d b7 bd 68 b2 98 bd
       -0.0007621207 0.062009946 -0.08941215 -0.07455903
000010 a6 f4 13 bd df c0 e3 3c 44 f4 ba bb e5 19 bc 3d
       -0.036121987 0.027801929 -0.0057053883 0.091846265
000020 d7 c9 c7 bb 7f 68 05 3d d0 8a 20 bd dc 10 e2 bc
       -0.006097059 0.03257036 -0.039194882 -0.02759593
000030 4b 33 ea bd 27 38 a0 bd 94 7a 49 bd 88 66 53 3b
       -0.114355646 -0.0782321 -0.049189165 0.0032257158
000040 48 98 31 3d 22 79 87 3d 21 15 a5 bd 54 3c 52 bd
       0.043358117 0.06614901 -0.08060671 -0.051327065
000050 d5 92 37 3d 43 9b c7 3d 30 93 be bc 52 cd b2 3d
       0.044817764 0.09746411 -0.023263544 0.08730568
000060 12 d0 86 bc 0d dc 65 3c b6 3c da 3d 8c cc cb bd
       -0.016456638 0.014029515 0.10656111 -0.099511236
000070 5c 24 77 bd 9a 30 9a bc 4a db 3d bd b7 51 c9 3d
       -0.06033741 -0.018822003 -0.04635171 0.09830039
000080 26 d0 94 bd d7 c6 41 bd b2 59 9d bd d2 26 e2 bd
       -0.07266264 -0.04730877 -0.07683124 -0.11042561
000090 ae 1d 8f bd d3 4e c8 3d 7f de 56 3d 64 55 69 3d
       -0.06988083 0.097806595 0.052458283 0.0569662
0000a0 54 db e7 3b 89 f4 71 bd bd b7 9b 3c 46 b2 db bd
       0.0070757065 -0.059071098 0.019008512 -0.10727362
0000b0 66 93 a7 bd 91 a1 60 bd c2 74 9c 3d 56 fe 8f 3d
       -0.08182411 -0.05484158 0.07639457 0.070309326
0000c0 00 a8 44 bd ae 5d 20 39 7c e7 9e 3d af ff f2 3d
       -0.04801178 0.00015293687 0.07758996 0.11865174
0000d0 de 15 63 3d 22 33 f5 3c fc 08 b8 3d ce 34 89 bd
       0.055440776 0.029931609 0.08986089 -0.06699525
0000e0 f1 57 b8 3c 33 c9 ac bd b8 f9 91 bd 6b d0 59 bd
       0.022502871 -0.08436813 -0.07127708 -0.05317728
0000f0 4b ac 58 3d 27 9e 40 3d 01 51 88 bd 71 fe 1f 3d
       0.052898686 0.047025826 -0.06656075 0.039061014
000100 df cc 89 3d 66 36 2b bc 41 7a f3 3b 6f 44 ed 3c
       0.06728529 -0.010449981 0.0074303453 0.028963296
000110 0b 9a 99 3d 00 d1 eb 3d 4f 81 a6 bd 7b 21 14 bd
       0.075000845 0.11514473 -0.081301324 -0.036164742
000120 7a 5b 4e 3d d6 58 cf 3d ee 60 db 3d 09 25 e0 3d
       0.050380208 0.10124366 0.10711847 0.10944564
000130 32 ef f3 3c 84 10 c0 bd 84 79 6d 3c 50 a3 86 bd
       0.029777143 -0.0937815 0.014494304 -0.06574118
000140 37 c4 c6 bd 83 6c e6 3d 90 48 c5 3d f3 7f e5 bd
       -0.09705394 0.11251166 0.09632981 -0.11206045
000150 34 50 cb 3c b7 77 36 bc 67 72 44 bc 1a fd 3e bd
       0.024818517 -0.011136941 -0.011990166 -0.046628095
000160 99 db 38 3d 0c ba 93 bd d7 9a 43 3d 65 72 84 3d
       0.0451313 -0.0721322 0.04775509 0.064671315
000170 15 79 b6 3d 7d e7 3a 3d 30 e1 ee bd 30 5c 8b bd
       0.08909813 0.04563092 -0.11664045 -0.06804693
000180 bd 8e 88 3d 0a 35 0b 3d 6b 6e a9 bd da 09 84 bd
       0.0666785 0.03398613 -0.08273014 -0.064471915
000190 52 ee ea 3d e1 0c a7 3d b8 83 44 bd bf 36 fd bc
       0.11471237 0.08156753 -0.04797718 -0.030909894
0001a0 0a c6 e1 bd 02 73 da 3b 4f ad a3 bd 87 0c ac bd
       -0.11024101 0.006666542 -0.0799204 -0.08400827
0001b0 25 0b 10 bc 42 63 63 3c bb b2 26 bd 13 99 95 3d
       -0.00879172 0.013878645 -0.040697794 0.07304587
0001c0 6c fc 89 bd ed 84 ce 3d 24 49 8e 3d e5 84 c0 bd
       -0.06737599 0.10083947 0.06947544 -0.094003476
0001d0 3f f1 cd bc 57 3d 06 3c db aa 6f 3c 61 70 9e 3c
       -0.02513945 0.0081933355 0.014628137 0.019340696
0001e0 1e f7 4d 3d 61 ce 5f 3c 95 1d 4a bd 99 ea 6c 3d
       0.050284497 0.013660044 -0.049344618 0.057840917
0001f0 7a b0 e9 bd 9e ce 78 bd 1c d0 bc bc 5e 64 5c bd
       -0.11410613 -0.06074392 -0.023048453 -0.053806655
000200 0e 5d 34 bd a7 4e c5 bd f3 a0 81 bc fe bd ff 3c
       -0.044034056 -0.09634142 -0.015823817 0.031218525
000210 eb c2 94 bd b1 0e 4b bc 09 0a 9a 3d 48 1a d2 bb
       -0.0726374 -0.012393639 0.07521445 -0.0064118244
000220 b5 23 d5 3b f2 bf 21 bc dd d8 7e 3c 63 23 74 3d
       0.0065045008 -0.0098724235 0.015554634 0.05960406
000230 94 a0 e5 3d 80 5e 9c 3d 5a 79 e2 3d fe 32 6a bc
       0.112122685 0.07635212 0.11058302 -0.014294384
000240 09 e5 ec bd 48 2e 4b bd df 9b ae 3d cd 3a 9c 3b
       -0.115671225 -0.049604684 0.08525824 0.004767752
000250 e2 4a 6b bd d1 7f c3 bd c5 24 e7 bd d9 2b cc bd
       -0.05744446 -0.095458634 -0.1128631 -0.09969301
000260 1e fc bd bc 0c b9 89 3d 1e 76 85 3d 65 f6 f0 bd
       -0.023191508 0.06724748 0.0651667 -0.11765746
000270 90 f1 94 3d c3 49 bb bd 27 40 d6 bc 19 e7 40 bd
       0.07272637 -0.09144928 -0.026153637 -0.047095392
000280 d6 1c e0 bc c9 8e a9 bc bc b1 d7 bd c3 39 d9 bd
       -0.0273575 -0.020697968 -0.10531947 -0.1060672
000290 66 b2 9e bc 80 4f 85 39 a4 d8 4b bd 65 80 4b 3d
       -0.019372176 0.0002542697 -0.04976715 0.049682993
0002a0 61 4a d3 bd 2e 8d ec bb 6d db d2 3d 36 38 34 bd
       -0.10316921 -0.0072189784 0.102957584 -0.04399892
0002b0 58 c0 e6 3d 29 12 4f 3d 3e 41 d0 bd a8 d5 8c 3d
       0.112671554 0.05055443 -0.10168694 0.06876689
0002c0 3a a2 76 bc c9 0f 50 bd 23 75 c5 3d 35 90 b6 bd
       -0.015053326 -0.050796304 0.09641483 -0.08914224
0002d0 46 e8 e8 3b 5b cd be bc bb de aa 3d 98 6e 04 3d
       0.0071077673 -0.02329128 0.08343264 0.032332033
0002e0 b4 65 67 3d 9d 46 13 3d 9c 89 da bc 8e 2a c9 bc
       0.056493476 0.035956014 -0.026676945 -0.024556424
0002f0 b8 0d c9 bd df 15 82 3d ca 90 b8 3d 47 91 a5 3d
       -0.0981707 0.06351828 0.09011991 0.0808435
000300 01 c0 9e bd 0c e2 82 3b 87 e8 a1 bd 06 2c 80 bd
       -0.077514656 0.003994232 -0.07905679 -0.06258397
000310 1f 94 85 bd a5 90 3b 3d b8 5d 7f bd bc a7 25 ba
       -0.065223925 0.04579224 -0.062345237 -0.0006319245
000320 34 e8 13 3a 10 77 91 3d af e5 b6 bd db c6 a0 bd
       0.0005642206 0.071027875 -0.089305274 -0.07850429
000330 5b e8 85 bd b1 95 9b 3d ec b2 29 bd 8a 71 c6 3d
       -0.06538459 0.07596911 -0.0414304 0.096896246
000340 0b 52 21 3d d9 2b 51 3c 74 22 de bb 99 91 b9 bc
       0.039384883 0.012766802 -0.0067790095 -0.022652434
000350 16 91 61 3c 41 91 fb bc 52 0b fc ba 30 c9 34 3c
       0.013767501 -0.03070891 -0.0019229448 0.011034295
000360 58 b5 ba bd 65 41 6e bd 05 20 ba 3d da 5a bc bd
       -0.0911662 -0.058167834 0.090881385 -0.09197016
000370 2d 21 11 bc 2d c9 e9 3d 7f 8f 3c 3d ec 7f f8 3b
       -0.008858007 0.11415324 0.046035286 0.007583609
000380 b2 a4 cc bd cf 64 8e 3d 97 43 96 bd ad 16 ef bc
       -0.09992351 0.069528215 -0.073371105 -0.029185617
000390 c4 78 16 bd 97 44 76 bc 77 bf 82 3c 82 05 dc 3d
       -0.036736265 -0.0150310015 0.015960438 0.10743238
0003a0 e7 6d 96 3c d9 aa d1 3d 18 2c 8f 3d 4a df 67 bd
       0.018362952 0.10237665 0.06990832 -0.05660943
0003b0 6c 5c 85 3d e5 15 9b bd ae 06 4a bd 25 c9 01 3d
       0.06511769 -0.075725354 -0.049322776 0.031685967
0003c0 34 d8 4d 3d c6 a3 bf 3d 30 0d 0d bd 65 79 41 bb
       0.050255015 0.09357409 -0.034436405 -0.002952182
0003d0 9d 89 5b 3d ed 98 e4 bd 90 55 9d 3d 8f 8d d8 bd
       0.053598035 -0.11161981 0.076823354 -0.10573875
0003e0 a0 d1 49 bc f1 b8 0b bd 37 fe 3f bd 03 43 c8 3c
       -0.012318045 -0.03411192 -0.046873298 0.024446016
0003f0 ae 0e cb 3d 9d d8 02 bd 47 7e 89 bd 75 da d0 bc
       0.09914909 -0.03194486 -0.067135386 -0.025494793

bias f4 [6]
000000 8e 65 a9 3d c0 1c 9c 3d 00 1a fa 3d 45 f6 37 3d
       0.08271323 0.07622671 0.1221199 0.044912595
000010 81 f0 b3 bd 3d 4e e0 3d
       -0.08786107 0.10952423

weight f4 [16, 6, 5, 5]
000000 45 f3 a6 bb 7a 96 0e 3d 45 0e 88 bd de f2 b6 bc
       -0.005094918 0.034811474 -0.06643347 -0.022332605
000010 1d ac a0 bd f5 d3 2d bd b3 3e 24 3c 8b 76 94 bd
       -0.07845328 -0.042438466 0.010024714 -0.07249173
000020 f5 3f d6 3c fa c1 47 3d be fc d4 3b 76 7d 7e bd
       0.026153544 0.048768975 0.006499856 -0.062131368
000030 d1 50 8f bd 3d ae 7c bc 32 51 52 3d b6 f8 9f 3d
       -0.069978364 -0.015422401 0.051346965 0.0781111
000040 93 fd 1e 3d 7b 2c 90 bc 96 50 f7 3c 55 90 a9 bd
       0.038816046 -0.017599335 0.030189794 -0.08279482
000050 fa bd 91 bd 7b 36 0a 3d 5f f5 59 bd 2a c7 18 3d
       -0.07116313 0.033743363 -0.05321252 0.037299313
000060 33 24 76 bd 13 bf 2b bd 1b dc 73 bd 52 4c 33 3d
       -0.060093116 -0.04193027 -0.05953608 0.043773957
000070 af c6 92 3b 18 94 99 3d b0 6a 74 3d cd dd 74 3d
       0.0044792513 0.0749895 0.059672058 0.05978184
000080 c5 aa 89 3c 7a 6d 42 bc a9 d7 1b 3b 00 f0 dd 3c
       0.016805062 -0.011866922 0.0023779667 0.02709198
000090 d7 66 15 3d ea dc 84 bd 01 cb 8e 3d 9e b4 d1 bb
       0.03647503 -0.064874485 0.06972314 -0.006399705
0000a0 9c 7c 56 bd da de 0b bd ad df 9a 3d 00 f2 a8 3d
       -0.05236493 -0.034148075 0.07562194 0.08249283
0000b0 7b e9 b1 bd cc 09 85 3d 82 a2 20 3d e6 63 02 3d
       -0.08687111 0.06496009 0.03921748 0.03183355
0000c0 5f 4f 7e 3d 39 92 60 bd db f6 eb 3c 24 7d 02 3d
       0.062087413 -0.05482695 0.028804233 0.031857625
0000d0 a8 5f ad bc e6 8b 0e 3d 82 5c d2 bb cf a4 49 3d
       -0.021163777 0.034801386 -0.006419719 0.04922944
0000e0 a5 cb 84 bc 99 f0 ec bc d4 b2 af 3c 6b 53 29 3d
       -0.016210387 -0.02892332 0.021447577 0.04133932
0000f0 06 7b 18 bd 5f 11 39 3c 10 c8 5a 3d 04 48 d2 bb
       -0.0372267 0.0112956455 0.05341345 -0.0064172763
000100 26 67 fc 3c b5 34 74 bc 95 f6 f8 3c a2 91 74 bd
       0.030810904 -0.014905144 0.030391017 -0.0597092
000110 95 39 38 bd 99 48 32 bd 78 f8 9a 3d 39 87 7c bc
       -0.04497679 -0.043526266 0.07566923 -0.015413099
000120 20 45 42 3b 64 72 1c bd 94 df a4 3d 3f 7d 88 3d
       0.0029643252 -0.03819503 0.08050457 0.06664514
000130 3c bb 8a bd a7 12 9e bd ec d9 8f bd 5c f0 8d bc
       -0.067739934 -0.077184014 -0.07023987 -0.017326526
000140 1f 7f 01 bd 69 56 5f bd 74 40 0b bd c4 b4 ac 3b
       -0.031615373 -0.054525767 -0.033997014 0.0052705724
000150 e6 39 5c bd b8 04 99 bb 25 f7 0f bd 1b d5 64 bd
       -0.053766154 -0.004669752 -0.035147805 -0.055867296
000160 e8 ab 55 bc 9d 85 23 3d a2 cf 80 bd 3c 94 f7 ba
       -0.013041474 0.039922345 -0.06289603 -0.0018888782
000170 da fe 22 bd 44 95 93 3d 81 71 b4 bd ac 0e bf bd
       -0.039793827 0.072062045 -0.08810712 -0.0932897
000180 04 f2 8b 3d 5b 45 85 bd 5b 1b 71 bb 10 fe e1 bc
       0.0683327 -0.06507369 -0.0036789987 -0.027586967
000190 55 92 9c bc c0 a1 aa bc bb 68 52 3d eb 73 af 3b
       -0.019112745 -0.020829082 0.05136941 0.0053543947
0001a0 77 f4 a0 bd eb 3c 50 bd 75 48 01 bd fb 93 24 3d
       -0.07859128 -0.050839346 -0.03156324 0.040180188
0001b0 1f f1 54 bd b5 77 9c 3d 86 80 ba bc 29 b7 98 bc
       -0.051987763 0.0764002 -0.022766363 -0.018642025
0001c0 95 70 7e 3d e6 11 28 3d e9 b1 8e 3d ab 9c 2f 3d
       0.062119085 0.041032694 0.069675274 0.04287402
0001d0 1d 07 e3 bc 71 08 5a bd 9e 45 61 bb c2 61 91 3d
       -0.027713353 -0.053230707 -0.003437377 0.07098724
0001e0 17 9d eb bc ba f2 9c bd 19 18 10 3d 0d ad ab 3d
       -0.02876143 -0.07663484 0.03517923 0.08382616
0001f0 0a 42 91 bc ed 73 86 bd 45 ea 93 bd 59 68 b5 3c
       -0.017731685 -0.0656508 -0.07222418 0.022144483
000200 8d bd 92 bb 34 14 2f bd ae 9a 5a 3c 94 2d da 3c
       -0.0044781626 -0.042743877 0.013342543 0.026633061
000210 84 46 7f 3d 9f ca 78 3d b8 d0 87 bc 8c bf 98 bd
       0.06232311 0.06074011 -0.016579017 -0.0745841
000220 76 10 98 bd fc b8 9c 3d b9 d7 08 3d c5 c8 f7 3c
       -0.07425015 0.076524705 0.033408854 0.030247102
000230 f3 cf 9d bd 64 58 90 3d c8 81 98 3d 81 ee 90 3d
       -0.07705679 0.07048109 0.07446629 0.07076741
000240 61 d3 93 bd 96 83 fb bc 77 98 5e bd 8c 18 a7 3d
       -0.07218052 -0.030702394 -0.05434462 0.08158979
000250 8c 9b f5 bc 24 41 07 bd 2e a4 23 3d 49 db 03 bd
       -0.029981397 -0.033021107 0.039951496 -0.03219155
000260 fe 6b 2c bd e2 8b 8b bc 57 f4 78 bc 37 1d 93 bd
       -0.042095177 -0.017034475 -0.015194974 -0.07183307
000270 57 98 8c 3d f4 fe 1b bd 18 d8 8d 3c b2 fe 72 3d
       0.06864994 -0.03808494 0.017314956 0.059324928
000280 e4 68 ef 3c da b7 08 3c c3 54 8e 3d 2f 36 54 3c
       0.02922482 0.008344615 0.06949761 0.0129523715
000290 5d d5 10 bd 8c 6b 81 3d 04 d8 61 3c 79 d1 94 bd
       -0.03535973 0.06319341 0.013784412 -0.07266516
0002a0 ff 77 b4 bc 91 f6 6f bd 08 6d 88 3d e2 02 5c bc
       -0.022029875 -0.058584753 0.06661421 -0.013428422
0002b0 89 6d 71 bd bd fb 4c 3b 62 db 5f 3d 7e a1 9a 3c
       -0.05894235 0.0031277977 0.05465258 0.018875834
0002c0 f4 79 08 3d 82 b4 a2 3c 6a cc 00 3d fd 7d 7b bc
       0.03331943 0.019861463 0.031444944 -0.015349862
0002d0 76 95 2d bd b6 f1 a0 bd 83 1b 73 bd 31 37 2e 3d
       -0.042378865 -0.07858603 -0.05935241 0.042533103
0002e0 e6 ef 59 bd d2 4f 1c bb 82 8d 83 3c ea 33 c6 3a
       -0.0532073 -0.0023851288 0.016058687 0.0015121673
0002f0 de a1 7f bd cd a5 8a 3d 1e c4 68 bd df c1 5a 3d
       -0.062410228 0.06769905 -0.056827657 0.053407546
000300 96 b4 8c bd 18 89 b9 bc 40 3d 34 3d de 75 3a bd
       -0.068703815 -0.02264838 0.044003725 -0.045522563
000310 57 34 5c 3d 4a a2 55 bd d5 ed 94 bd 4b d2 3c bd
       0.053760853 -0.052156724 -0.07271925 -0.04609899
000320 64 8a 30 3c c8 81 83 3d a0 34 44 bd a8 1c 85 3c
       0.010775182 0.06421238 -0.04790175 0.016249016
000330 8e 8d c9 bc 13 6d 8a bc 33 97 56 3d 8c cb 86 bd
       -0.024603631 -0.016897714 0.05239029 -0.06581792
000340 0b cd 1d 3c 40 14 6c 3d a6 9a a4 bc 4d 29 58 3d
       0.009631406 0.0576365 -0.020093273 0.052773762
000350 d9 9f 07 bd 54 9b 6f 3d 7e 93 aa bd c3 26 ce bc
       -0.033111427 0.05849774 -0.08328913 -0.025164967
000360 38 9c c6 bc 22 b8 aa 3c 17 7c 06 3d e0 85 8f 3d
       -0.024244413 0.020839754 0.032833185 0.070079565
000370 fd af 9c bc 57 53 27 bc c8 c7 50 3d 4d 39 f0 bc
       -0.019126887 -0.010212741 0.050971776 -0.029324198
000380 6c 0d 92 3d 4b 6c 35 bd 84 f6 66 3a 7c ba f2 bb
       0.07131466 -0.04429273 0.00088105374 -0.0074074846
000390 bf e8 ff 3c 23 b1 68 3d 2d aa 66 bc e9 b3 a0 bd
       0.031238912 0.056809556 -0.014078659 -0.07846815
0003a0 2a f0 8c 3c 88 42 fb 3b e9 f1 88 3c 82 a2 2e bd
       0.017204363 0.0076678433 0.016716914 -0.04263545
0003b0 a4 ea 35 3d ad 75 7d 3d 20 b6 55 bc 11 de aa bd
       0.044413224 0.061879802 -0.01304391 -0.08343137
0003c0 e6 17 8f 3d d7 58 74 bd 1e 8b 1a 3c 63 d0 fd 3b
       0.0698698 -0.059655037 0.009432582 0.007745789
0003d0 3e ee 06 bd e6 33 34 3d d8 a9 54 bd 55 80 db 3c
       -0.03294205 0.043994807 -0.051919788 0.026794592
0003e0 a1 51 4c bd cf 96 fe bb a1 05 76 3c 0b aa 9b 3d
       -0.049882535 -0.0077694426 0.0150159905 0.076007925
0003f0 10 0e 01 bd 45 78 76 3d aa f9 9a bb ce 9f 07 bd
       -0.03150755 0.06017329 -0.0047294693 -0.033111386

bias f4 [16]
000000 1b c0 46 3d d8 b7 8a bd d1 98 42 3d 79 5e aa 3d
       0.04852305 -0.06773347 0.04750902 0.083188005
000010 e6 9f c7 3c 31 6d 27 3d 0e 6d 4a bd b3 14 fa 3c
       0.024368238 0.040875617 -0.04942041 0.030527448
000020 ac c6 6e 3c d6 f3 09 bd 99 64 16 3d 7c e0 b5 bd
       0.014573734 -0.033679806 0.03671703 -0.088807076
000030 de e7 38 bd 88 1b 0d bd d0 52 6b bd 56 c7 44 bd
       -0.045143 -0.034450084 -0.057452023 -0.048041664

weight f4 [30, 400]
000000 85 e9 4e bd 81 51 0f 3c 96 65 d9 bb b9 6e 4b bd
       -0.05051567 0.008747459 -0.0066344244 -0.04966614
000010 a0 d4 21 bc 90 c8 36 bc e9 90 81 3c 4f 8e 13 bd
       -0.009877354 -0.011156216 0.015816169 -0.036024388
000020 98 24 a2 bc 4b fb cd ba cf 23 8d 3c 44 be c1 bb
       -0.01979284 -0.001571515 0.017228989 -0.005912574
000030 f8 b8 8a 3c f9 63 3b 3d 00 0b 8e bc 0e 19 0b 3d
       0.016933903 0.04574964 -0.01733923 0.03395944
000040 79 4f 1f 3d 4e b4 39 bd 1c 25 39 3c 9a 1a e3 3c
       0.03889415 -0.045337968 0.0113003515 0.027722646
000050 b6 51 e7 bb 52 21 b9 3c 56 67 1c bc a6 d5 00 3d
       -0.0070593012 0.022598896 -0.009546122 0.03145375
000060 76 8b be bb 55 79 10 bd 31 f1 0e 3d fa fb 51 3c
       -0.005814965 -0.03527196 0.034897987 0.012816424
000070 cd de 28 3d 1f 20 29 3c e0 e7 dd 3c 32 bb 00 3d
       0.041228104 0.0103226 0.027088106 0.031428523
000080 b3 ac 3c 3c 72 54 3b bc a9 00 04 3c c6 54 f7 bc
       0.011515784 -0.011433708 0.008056798 -0.03019179
000090 12 50 e0 3b d4 e6 75 bc 7c e4 91 3b 30 e9 11 bd
       0.0068454826 -0.015008647 0.0044522863 -0.035622776
0000a0 32 cf f3 3c 12 8a 3d bd 04 35 c8 3c 6a 6e 10 3d
       0.029761884 -0.046274252 0.024439342 0.03526155
0000b0 fa 19 3a bd 26 7d 30 3d c7 0e 26 bd b5 3f 4e bc
       -0.04543493 0.0430881 -0.040541437 -0.012588431
0000c0 75 8a a9 3c 39 a3 ce bc c5 7a 30 3d 55 96 be bc
       0.020695904 -0.025224315 0.043085832 -0.023265043
0000d0 4c 52 0b bc a5 f9 0e bd b0 45 cf bc 6e 5c 4a 3d
       -0.008503508 -0.03490605 -0.025301784 0.049404554
0000e0 33 75 19 3d 30 e9 39 3b bf f8 28 3b 70 fb 30 bd
       0.037465286 0.002836775 0.002578303 -0.04320854
0000f0 10 d2 1d 3d 60 c5 e9 bb 27 dc a8 bc 0f 6f 1e bd
       0.03853041 -0.0071341246 -0.02061279 -0.038680132
000100 03 90 33 3d b6 d7 b6 3c 69 5d fa 3c 8e 25 c7 3b
       0.043838512 0.022319656 0.03056212 0.006077475
000110 cf e4 06 bd 4b b3 be 3c 6c 7a 87 3a c2 28 3c 3c
       -0.032933053 0.023278853 0.0010336167 0.011484327
000120 8d 95 85 bc d6 73 dd bc 47 02 17 3d 34 d8 9c 3c
       -0.016306663 -0.027032774 0.036867406 0.019146062
000130 a4 a3 b2 bc 14 7e fa 3b a7 c3 a3 bc b3 31 8b bc
       -0.021806546 0.007644424 -0.019990755 -0.016991472
000140 57 ef 06 3d c7 f9 0e bd 20 b8 34 3d 90 2b bd 3c
       0.032943096 -0.034906175 0.044120908 0.023092061
000150 0b 84 7f bc ac ce 88 bc de 69 6d 3c 97 9b 0b bd
       -0.015595446 -0.016700111 0.014490573 -0.03408393
000160 77 9c a9 3c 6c a2 31 bd 1f 5c 2e 3c 3c 0f 17 bd
       0.020704491 -0.04336779 0.010642081 -0.036879763
000170 0d 6f 5f 3c 67 c2 af 3c 99 55 b6 3c ca 85 9a b9
       0.013637316 0.021455003 0.022257613 -0.0002947285
000180 dc 37 2c 3d 3d 6e d7 3b 8b 10 97 3c 02 71 97 3c
       0.04204546 0.0065744207 0.018440505 0.018486504
000190 07 66 2b bd aa 37 82 3b c4 97 86 bc 0f cc 9e bc
       -0.041845348 0.003973921 -0.01642979 -0.019384412
0001a0 d9 4c 08 3d 72 8f 9f bc c0 51 ee 38 a2 6c b2 3c
       0.033276413 -0.01947758 0.000113639515 0.021780316
0001b0 65 fb 15 3d 24 ce b9 3c 78 96 2c bc 4f fe 2a bd
       0.0366167 0.022681303 -0.010533921 -0.041746434
0001c0 23 bd 5c bd 19 42 27 3c c2 70 0e bc 66 ea 0b bd
       -0.053891312 0.01020863 -0.008693876 -0.034159087
0001d0 74 f7 a2 3c 2b 91 1b 3d 93 9f a6 3c 3a 8e 15 bc
       0.019893385 0.03798024 0.020339763 -0.009128148
0001e0 82 98 c8 bb 9a 9f 17 bd bf 77 03 3d 7c a9 1c bd
       -0.006121696 -0.037017442 0.03209662 -0.03824757
0001f0 8d cc 0a 3d ec ea bf bc b9 60 93 bc ac 92 1f bd
       0.03388648 -0.02342745 -0.017990457 -0.038958237
000200 f3 78 4c bc 2f 45 2c bc 2f aa a3 bc 3f fd 29 3d
       -0.012480008 -0.0105145415 -0.01997861 0.04150128
000210 d5 b6 fb 3c da 42 2e bd 18 61 e2 bb 53 32 db 3c
       0.03072683 -0.042544223 -0.006908547 0.026757395
000220 6f 91 6e 3d b2 88 9c bb 15 75 06 3d 23 c8 4b 3b
       0.058244165 -0.0047770375 0.032826502 0.0031094633
000230 78 5c 15 bc 3f 59 2e 3d 6f a2 13 bd 97 04 40 3d
       -0.009116285 0.04256558 -0.03604358 0.046879377
000240 03 a6 79 3d 54 b2 ab bc 81 12 96 3c 08 c5 42 3d
       0.060949337 -0.020959057 0.01831937 0.047551185
000250 7f 66 51 3c 7f 1c 7f 3c 72 36 86 3c 10 b1 96 bc
       0.012780785 0.015570759 0.016383383 -0.018394977
000260 19 b4 3a 3c cf a2 ed bc 4e cd 1c 3d 4e cc b0 bc
       0.011395478 -0.029008297 0.03828173 -0.021581795
000270 07 5a 0e 3c 5a c0 50 bc 16 f2 b4 3c 82 91 5c bb
       0.008688456 -0.012741173 0.022088092 -0.0033656065
000280 9c 47 e2 3c de 04 80 bc b9 a5 08 bd 49 d6 73 3c
       0.027622037 -0.01562732 -0.03336117 0.0148826325
000290 5a 81 fa bc e4 e7 1e bd bb b0 8c 3c eb f5 06 bd
       -0.030579258 -0.038795367 0.017174115 -0.03294937
0002a0 e9 72 9f bc ff 00 4d bc a0 75 9f 3b 80 71 5c bc
       -0.019463973 -0.0125124445 0.004866317 -0.013454795
0002b0 e6 6c 6a bc 54 9d 13 bc 5c 3f 17 3d 00 2e 8c 3c
       -0.01430819 -0.009009678 0.03692566 0.017111778
0002c0 4b e1 b2 bc e9 6a ff bc fd ca d5 3a 81 46 65 3c
       -0.021835944 -0.031178908 0.0016311106 0.01399386
0002d0 02 af bb 39 b8 01 fa 3c cd 64 3f 3d c8 f7 6a 3c
       0.0003579781 0.030518398 0.04672699 0.014341302
0002e0 1f a1 89 3c ea 5b e6 3c 4d c2 98 bc a2 74 e2 3b
       0.016800461 0.02812 -0.018647337 0.0069108764
0002f0 ea 43 23 3d 45 2e b1 bc f8 08 44 3b 6b 8f cb bc
       0.03985969 -0.021628508 0.0029912572 -0.02484866
000300 e0 58 31 bd e9 a2 b8 3c 88 00 ec 3c ad 0a e5 bc
       -0.04329765 0.02253862 0.028808847 -0.027959192
000310 a7 2e 73 3c 55 05 22 3c bf 59 8c 3c 2d f8 c2 3c
       0.014842666 0.009888967 0.017132638 0.02379998
000320 96 7d 2c 3d 55 ab 15 3d 5d 14 34 bd 89 61 9f bc
       0.042111956 0.036540348 -0.043964732 -0.019455688
000330 70 7c af 3c 80 ef f1 bc 37 4f 4f 3c bc 5b b5 bc
       0.021421641 -0.029533148 0.012653164 -0.022138469
000340 bc 07 0b 3c d7 8c d5 3c 7b d0 93 3c 6b c4 15 3d
       0.008485731 0.026068134 0.018043747 0.036564272
000350 86 62 71 bb 6e 69 e2 3c 27 13 77 3c 80 aa 60 bc
       -0.0036832406 0.027638163 0.01508025 -0.013712525
000360 2b 0a 12 bd ab ef 3b 3d 2e 11 9d bc 47 f0 19 3d
       -0.03565423 0.045882862 -0.019173231 0.037582662
000370 45 dd d2 3c 43 45 15 bb 10 28 3c bd 54 39 73 bb
       0.025740275 -0.002277688 -0.045936644 -0.0037113028
000380 4d 0b ed bc c3 73 99 3b 0e 6d c2 bc fa ab 08 3d
       -0.028936053 0.0046829893 -0.023733642 0.033367135
000390 86 99 2e bd f3 ef 32 bc 5e 07 ba 3b bd 8f 14 3c
       -0.04262688 -0.010921466 0.005677148 0.009067473
0003a0 e3 07 3d 3d 30 89 88 bc 1c 27 34 bd 9d 7b 1f 3d
       0.0461501 -0.016666979 -0.04398261 0.038936246
0003b0 ff 3c af 3c ec 6b 10 3d 13 3b e3 bc 8b 9b ca bc
       0.02139139 0.035259172 -0.02773813 -0.024732372
0003c0 b6 20 9b bc 0e f5 b8 3b 5a a3 b3 3c 1c 09 c8 bc
       -0.018936496 0.005644447 0.021928478 -0.024418406
0003d0 ce d6 89 bb ca 9f 97 bc fe 74 30 3d ef 65 78 bc
       -0.004206515 -0.01850881 0.043080322 -0.015161022
0003e0 a9 33 33 3d ff 4f 1b bd fc 55 b7 bc 90 92 33 bd
       0.04375044 -0.037918087 -0.022379868 -0.043840945
0003f0 6a 17 ea 3c 9c 4f 19 bd e2 91 8c 3c c0 42 ce bc
       0.028575618 -0.037429437 0.017159406 -0.025178313

bias f4 [30]
000000 54 4b ed bc b9 6d 1e bd b8 53 16 3d 50 39 67 3b
       -0.028966583 -0.03867886 0.036700934 0.0035281964
000010 40 38 09 bc d1 0d 90 3c 3f 93 3c bc e1 0c 89 3c
       -0.008375227 0.017584713 -0.011509716 0.016729774
000020 3d 41 ee bc 4e ce 71 3c 70 fb 52 3d b4 31 2d b9
       -0.029083842 0.0147586595 0.05150932 -0.00016517082
000030 a4 2f ee 3c 98 11 e9 3c a2 41 90 bb ce 1b 24 3d
       0.029075451 0.028450772 -0.0044023553 0.04006558
000040 ca fd d5 3c 83 89 c6 ba 2a 03 6c 3b a0 ea 00 3d
       0.026121993 -0.0015147183 0.0036012628 0.031473756
000050 3b 55 a4 bc c8 73 2f bc 67 97 29 bd c4 6e d8 bc
       -0.020060172 -0.010708757 -0.041404154 -0.026420005
000060 f3 79 88 3c de ee 06 bd eb c8 db bb e2 d5 63 3d
       0.016659712 -0.032942645 -0.006707301 0.055623896
000070 07 83 a6 3c 66 58 9c bb
       0.02032615 -0.00477128

weight f4 [60, 30]
000000 7d e8 18 3e 80 39 99 bd 43 7b 0f 3e f6 8d 33 3e
       0.14932437 -0.074816704 0.14011864 0.17534623
000010 e8 b1 38 be 27 b8 86 3d d2 19 9e 3d 7d ca 5c 3d
       -0.18036616 0.06578093 0.077197686 0.053904045
000020 9f 73 24 3e 7b 8f 2a 3e 03 ef 5d bd 01 cd 1f 3d
       0.16059731 0.16656296 -0.054183017 0.039013866
000030 75 3f 69 bd e4 33 1c be ed d4 2b bc 49 fe 5f 3d
       -0.056945283 -0.1525417 -0.010487777 0.054685865
000040 12 7d 87 bd 37 58 c4 3d ef e6 21 be e6 b6 ec bd
       -0.06615652 0.09587138 -0.1581075 -0.115583226
000050 cf 65 fa bd c2 8a 13 bc a3 98 ed 3d 88 dc ce 3d
       -0.1222645 -0.00900525 0.11601379 0.10100657
000060 41 84 14 3e 7e 9a 29 3e a2 39 15 be 34 33 50 3d
       0.14503576 0.1656284 -0.14572766 0.05083008
000070 bc d6 d7 bd 76 16 0c be 53 69 31 3e fc 7f 29 be
       -0.10539004 -0.13680443 0.17325334 -0.16552728
000080 fe 04 27 be b2 4e 0c be be 58 e9 3d b7 3b 10 be
       -0.16310498 -0.13701895 0.11393879 -0.1408528
000090 83 64 9e 3d 72 b1 0e be cb 22 5b 3d 86 29 a2 3d
       0.07734015 -0.13934878 0.053499978 0.07918076
0000a0 80 18 0e be a4 ef 52 bc 4b 87 f3 bd b2 45 27 3e
       -0.13876534 -0.012874518 -0.118910395 0.1633518
0000b0 3f 65 1f bd ac c2 09 be d2 d8 0c bd 7a 39 a6 3d
       -0.038914915 -0.13453168 -0.034386463 0.081164315
0000c0 00 d6 07 be 6b 6f 10 3e 4b e1 01 3d 16 a7 1b be
       -0.13265228 0.14105003 0.031708997 -0.15200457
0000d0 dc ff f9 3d bd 98 81 3d dc 85 cb 3d 62 80 96 bc
       0.122070044 0.06327961 0.09937641 -0.018371765
0000e0 a1 8a bb bd 17 41 c9 bd e6 52 8a 3d 2c 4b 08 3e
       -0.09157301 -0.09826868 0.06754093 0.13309926
0000f0 1b af 90 3d 93 03 bd bd e0 79 42 3e 54 3f b6 3c
       0.07064649 -0.09229197 0.18991804 0.022246994
000100 02 bc e8 bd 9f 5d cd 3d 02 2a df 3d 35 27 03 bd
       -0.11363985 0.100276224 0.10896684 -0.032019813
000110 90 1b 50 bd 93 dd d4 bd 77 f7 f7 3d eb e3 3e 3e
       -0.050807536 -0.103938244 0.12107747 0.18641631
000120 34 4c 51 bd f1 33 ba 3d 05 07 ee 3d 41 d4 88 3d
       -0.051098064 0.09091938 0.116224326 0.06681109
000130 ea 11 19 be 18 1b 07 3e a4 1a 04 bd 98 94 23 be
       -0.1494824 0.13193929 -0.03225197 -0.15974653
000140 0b 91 8d bd c9 b0 13 bd 1c 52 06 3e d0 3d 2d be
       -0.069124304 -0.036057267 0.1311726 -0.16918111
000150 7b 0a 3c 3d a8 59 0c be 91 95 08 3e bd 72 f2 bd
       0.045908432 -0.13706076 0.13338305 -0.11838291
000160 44 7c fe bd 48 97 7f bd 70 a1 78 bd 4b e3 26 bd
       -0.124260455 -0.062400132 -0.060700834 -0.040744107
000170 95 56 1d be 9c dd b7 bd a3 eb 2b bd c7 00 b2 3d
       -0.1536506 -0.089778155 -0.041972768 0.086915545
000180 dd 1b 23 3d 80 64 0d 3e 05 bf a1 bd e0 89 1e bd
       0.039821494 0.13807869 -0.07897762 -0.038705707
000190 f3 76 c4 3d c3 35 60 bd 08 39 38 be d0 90 16 be
       0.09593 -0.05473877 -0.17990506 -0.14703679
0001a0 7c 03 f3 bd 86 49 02 3d 8f fd 28 be 65 1c 08 bd
       -0.11865899 0.0318084 -0.16502975 -0.033230204
0001b0 b1 8f 31 be 2d ae 68 bd 7b 67 83 bd fc 3e 33 be
       -0.1733997 -0.056806732 -0.06416222 -0.17504495
0001c0 24 59 25 3e 4a 6e 5e 3d 21 1a ab bd f5 eb 32 3e
       0.16147286 0.0543044 -0.08354593 0.17472823
0001d0 fc 81 1d 3e ae 15 90 3c b0 f1 aa bc 3b 85 0d 3e
       0.15381616 0.017588463 -0.020867199 0.13820355
0001e0 06 80 8c 3c 74 b3 ba 3c be 6d 49 bc 2d 43 7a 3d
       0.01715089 0.022790648 -0.012294231 0.06109922
0001f0 ad 76 c6 3d a2 a5 27 3e 9a 43 f6 bd 9e f6 b5 3b
       0.09690604 0.16371778 -0.12024613 0.0055530807
000200 78 88 27 3d 98 90 91 3d c3 5f f9 3d 06 fa df 3d
       0.04090163 0.07107657 0.12176468 0.1093636
000210 26 09 42 be 3c e4 81 3d 3f d7 f1 3a 3f 68 1a 3c
       -0.18948802 0.063423604 0.0018450989 0.009424268
000220 b5 e2 23 be 54 a9 07 3e 05 f3 83 3d 08 f6 23 be
       -0.1600445 0.13248187 0.06442837 -0.16011822
000230 db 47 1c 3e b4 5b 11 3e ee 2a 25 be 00 1b 5c bd
       0.15261786 0.14195138 -0.16129658 -0.053736687
000240 41 6a 36 be 59 00 b0 bb 5d 92 86 bc 25 cf 34 be
       -0.1781397 -0.005371135 -0.016427213 -0.17657144
000250 19 00 e6 bd d6 5e 63 bc cf bc 38 3e 05 b4 ff 3d
       -0.112304874 -0.013877591 0.18040775 0.12485508
000260 5d 59 36 3e ad 28 b8 3b 8a 28 12 be 73 68 c9 3d
       0.17807527 0.0056200833 -0.14273277 0.09834375
000270 29 f2 21 bd 77 88 0c 3d c7 56 34 3e 08 e9 d6 bd
       -0.039537583 0.03430983 0.17611228 -0.10493666
000280 70 7f 4c 3c 3e 6d 34 be e8 26 8d bd d0 ef e1 bc
       0.012481555 -0.17619798 -0.068921864 -0.027580172
000290 59 9d 04 3d 1e 4c 16 3e 31 1a 39 3e 64 47 0e 3e
       0.03237662 0.14677474 0.18076397 0.13894421
0002a0 db b0 9d 3c 31 37 0f 3e ea 0c 87 bd 40 af 6d bd
       0.01924937 0.13985898 -0.0659426 -0.05802846
0002b0 51 af 73 bd 56 a1 de bd ac f5 58 bd 2a 5e d9 bc
       -0.059493367 -0.10870616 -0.052968666 -0.026534159
0002c0 dd b9 c7 bd 52 31 52 3d ed c4 7c 3d 0f e1 dc bd
       -0.097522475 0.051316567 0.06171124 -0.10785114
0002d0 76 1b 3d be 80 90 95 bc 1a 78 5a bc eb 52 ff 3c
       -0.18467507 -0.01825738 -0.0133342985 0.031167468
0002e0 62 d4 d6 3d ac 45 cf bd b4 b2 46 bd 88 4e dc bd
       0.104897276 -0.10120711 -0.04851027 -0.10757166
0002f0 d2 0b 57 bd 5c 87 1c be b1 3d 30 3e 6d 3e 38 be
       -0.052501507 -0.1528601 0.17211033 -0.17992564
000300 cd ec 9d 3d b9 1b 81 3c 4c 98 34 3a 56 32 a2 bd
       0.07711182 0.01576029 0.0006889149 -0.07919757
000310 b7 31 d9 3d 1d b3 db 3c 29 58 ec bc 72 22 2d 3e
       0.106051855 0.026818806 -0.028850632 0.16907671
000320 d0 3d 37 be 42 6f 09 bd 07 07 34 be 64 fc f2 3d
       -0.17894673 -0.03355337 -0.17580806 0.11864546
000330 a3 68 e7 bd 03 be 86 3c c2 5d 29 be 99 ef c8 3d
       -0.11299255 0.016448027 -0.16539672 0.098113246
000340 e0 bb 31 bd 13 2c 34 3d e2 f0 38 3e 57 a2 83 3d
       -0.043392062 0.043987345 0.1806064 0.06427448
000350 d0 a1 0c 3e 89 7f b7 3d 40 e5 32 bc a3 36 68 bc
       0.13733602 0.08959872 -0.010918915 -0.014173183
000360 0a 03 1c be 75 ca 14 be af 6e a8 3d 10 f5 31 3d
       -0.15235534 -0.14530356 0.08224236 0.0434466
000370 15 ff c6 3c 64 53 15 3e d5 5a 42 be b0 aa 0f 3e
       0.024291554 0.14582592 -0.18979962 0.14029956
000380 57 07 b6 3d 18 47 15 be 65 5a 1e 3d 5a 60 2d 3d
       0.08888119 -0.14577901 0.038660426 0.042328216
000390 c7 b4 17 be cd bf 9c 3d d3 24 7d bd 1d fa 9a bd
       -0.14815055 0.076537706 -0.061802696 -0.075672366
0003a0 6e c6 3e bc 73 58 89 3d 51 3e c5 3d 89 6b 33 be
       -0.011643989 0.067063235 0.096310265 -0.1752149
0003b0 82 0a b6 3b 05 cd 21 be c1 ae 35 3d ce 73 0a bd
       0.005555452 -0.15800865 0.04435611 -0.033801846
0003c0 d4 0b a4 bc a9 81 16 be e7 39 d4 3d 5b 46 e6 bd
       -0.020025171 -0.14697899 0.103626065 -0.11243888
0003d0 c1 74 87 bc 42 42 20 be 2a 27 0b 3e e3 1c 15 3d
       -0.016535165 -0.15650275 0.13589159 0.0364045
0003e0 a2 d5 9a 3c 07 52 0f 3e 93 9a 08 3d 8f 3b ee 3d
       0.018900696 0.13996135 0.03335054 0.11632454
0003f0 23 74 10 be 82 90 78 bc 79 99 bf bd 59 31 85 3d
       -0.14106803 -0.015171172 -0.093554445 0.06503553

bias f4 [60]
000000 fb 18 86 3d c0 a0 25 be 8a 23 a9 3d 93 77 2a be
       0.065477334 -0.16174603 0.08258732 -0.16647176
000010 57 56 04 bd 9d a4 e6 3d 55 66 cb bd ba 5f 3b bd
       -0.032308903 0.11261866 -0.09931628 -0.04574559
000020 f0 3e 53 bd 53 3e c1 bd 75 d7 18 bd 1b 39 e1 bd
       -0.051573694 -0.094357155 -0.03731485 -0.1099722
000030 3d a9 0d be 54 e4 0d bd b2 7b 91 bd 5c 52 5d 3d
       -0.1383409 -0.03464158 -0.07103671 0.054033622
000040 79 b4 13 3d d6 43 dc 3a c7 61 db 3c 17 b2 90 3c
       0.036060784 0.0016804885 0.026780022 0.017663045
000050 9d 29 bd 3d 2c 7f b6 3c 83 4d a4 3d cc 6d 79 3d
       0.09236453 0.022277437 0.08022597 0.060895726
000060 e3 38 01 3d 41 83 63 3d 79 f8 13 3e 15 a6 50 bd
       0.031548392 0.055545095 0.14450254 -0.05093964
000070 c2 c4 52 3c ab 8e 44 bd b7 1c f4 3d 54 3a 70 3d
       0.0128642935 -0.04798762 0.119195394 0.058649376
000080 4a bf 92 3c e7 f0 a9 bd 84 20 e9 bd 65 71 c1 3c
       0.01791348 -0.082979016 -0.11383155 0.023613641
000090 72 e3 1c 3e c2 de b5 bd 30 7c a5 3d 89 a7 06 bd
       0.15321139 -0.08880378 0.080803275 -0.032874618
0000a0 4c 71 b3 3d bf b7 3d 3d 6b a7 58 3d b6 4c ee 3d
       0.08761844 0.046317812 0.052894037 0.11635725
0000b0 80 90 82 3d aa 3e f1 3c c7 b2 2f 3e 8c 74 f8 bd
       0.063752174 0.029448826 0.17158042 -0.121316046
0000c0 90 a3 5b 3c cd 90 16 be b1 29 06 be e2 28 40 be
       0.013405696 -0.14703675 -0.13101842 -0.18765596
0000d0 7d 93 8b bb b2 b5 56 3d 52 d3 bf bc e8 d4 ad bd
       -0.0042595253 0.052419372 -0.023416195 -0.08487874
0000e0 d9 3e f0 bd 7e 9e 79 3c 19 a9 d4 bd 42 27 a1 bb
       -0.11730737 0.015235541 -0.10383815 -0.00491801

weight f4 [2, 60]
000000 c4 06 d6 3d 24 41 b2 3d bc 52 3e 3d 2a 17 2d bd
       0.10450509 0.08703831 0.04646562 -0.04225842
000010 60 6a fe bd 85 42 7b bd 2f bc 90 bc f4 58 83 bd
       -0.12422633 -0.061342735 -0.017667858 -0.06413451
000020 ae b9 72 bd 20 d2 73 bd 3c b9 e8 3d 7c c3 04 bb
       -0.05925911 -0.059526563 0.11363456 -0.002025812
000030 ae 2a db 3d 6a 5a b9 bd 07 09 83 3d 5c 56 f0 bd
       0.107015 -0.09050448 0.06398206 -0.11735222
000040 bd 1e 45 bd ab 57 59 bd be 5a fc bd 80 e3 b7 bd
       -0.048125017 -0.053062122 -0.12321995 -0.08978939
000050 f0 af 9c bd c4 c3 bd bc 3b 89 30 bd a3 f9 ef bd
       -0.07650745 -0.023164637 -0.043099623 -0.11717536
000060 3c 3d 97 3c 6f 3e 32 3d d5 2f c8 3c 63 3d c5 3d
       0.018461816 0.043516573 0.02443687 0.09630849
000070 ba b8 1d bb 07 e4 e3 3d 84 78 99 bc 2f 07 13 bc
       -0.0024066404 0.11127477 -0.018734224 -0.008973881
000080 fa 4e 1c bc f6 d9 f7 bc c3 ef 50 bd d4 a9 f3 3c
       -0.009540314 -0.030255299 -0.051009905 0.029744066
000090 7f 70 98 bd 1f e5 35 3d 4a 39 cd bd 55 ed 5e bc
       -0.07443332 0.04440796 -0.10020693 -0.013606389
0000a0 ac f9 98 bc 7d 5e 6b bd 16 81 b9 3d 85 50 e0 bd
       -0.01867374 -0.057463158 0.09057824 -0.10952858
0000b0 67 59 7b 3d b2 3c 00 be 96 d6 a9 3d 39 7b fe 3d
       0.061364558 -0.12523153 0.08292882 0.124258466
0000c0 cf c8 e9 bc 1a df 5e bc 33 0f 40 bc f1 81 90 3d
       -0.028538136 -0.013602996 -0.011722374 0.07056034
0000d0 70 78 14 3c ea 25 e3 bc 73 bc e4 3d 47 4f d1 3d
       0.009061918 -0.02772804 0.11168756 0.10220199
0000e0 d6 8c 26 bc 02 74 8c bd 78 f8 98 3d 1b de 70 bd
       -0.010165414 -0.06858064 0.07469267 -0.058805566
0000f0 85 c8 91 bd 1c 3d b2 bd f2 3c 8d ba a0 cd 74 bd
       -0.07118324 -0.08703062 -0.0010775609 -0.05976641
000100 7d d1 b6 3d c9 95 bb 3d 31 df 64 bd a2 1b 6c bd
       0.089266755 0.091594286 -0.055876914 -0.05764354
000110 44 d6 d1 3d cf fe 84 bd 52 ef ae 3d 89 63 62 bc
       0.10245946 -0.064939134 0.085417405 -0.013817676
000120 6e af b7 3d 3c 1e 86 3d 58 b2 bf bd c0 c9 bb bd
       0.089690074 0.065487355 -0.09360188 -0.0916934
000130 c2 3e 7f 3d 20 e5 7f bd 5d bf 5c 3c 70 79 97 3c
       0.06231571 -0.06247437 0.013473359 0.018490523
000140 c6 b8 ea bd 21 7a cf bb 9b 8d b7 3d 88 3f 4c 3b
       -0.11461024 -0.0063316976 0.08962556 0.0031165797
000150 93 91 a0 bd c3 07 00 3e df 6f dc 3d 6a f9 05 3d
       -0.07840266 0.12502961 0.10763525 0.032708563
000160 9c 50 b2 bd 01 e4 40 3d b3 0c 40 3d 56 85 9d bd
       -0.08706781 0.04709244 0.04688711 -0.076914474
000170 b8 62 bb bd 4c dc 99 bd 54 4d fc 3d b1 42 7b 3c
       -0.091496885 -0.075127214 0.12319437 0.015335725
000180 99 05 fd 3a 48 76 74 3d 73 e8 9a bd 68 fc 2f bd
       0.0019304036 0.059683114 -0.075638674 -0.042965323
000190 70 f2 b6 3c 4c d9 e5 3d b4 05 f2 bb b0 5c 0a 3d
       0.0223324 0.11223087 -0.007385934 0.0337798
0001a0 7c 6d db bd 07 43 e4 bd 4f 77 a9 3c 5d 13 65 bb
       -0.10714242 -0.11145597 0.020686774 -0.0034954168
0001b0 97 19 cc 3d 87 a6 09 3d 62 e7 fd 3d 02 b3 ab bc
       0.099658184 0.03360608 0.123976484 -0.020959381
0001c0 63 a0 15 bd d8 b1 75 bc 27 4f 6a bd 33 fe af 3b
       -0.03652991 -0.014996015 -0.05720439 0.005370879
0001d0 51 f4 d6 bd 9b a6 8d 3c 73 02 1a bc 69 55 2a 3d
       -0.104958184 0.017291358 -0.009399998 0.04158536

bias f4 [2]
000000 c7 91 e8 3d 60 b8 6c 3d
       0.1135593 0.05779302

exp_avg f4 [6, 3, 5, 5]
000000 f2 f9 7c 3d a3 bc 95 3d a5 d1 8e 3d dc 20 6c 3d
       0.061761804 0.0731137 0.0697358 0.057648525
000010 08 bf 80 3d fd 66 81 3d 91 14 92 3d 2b 7d 84 3d
       0.06286436 0.063184716 0.07132829 0.064691864
000020 59 ae 62 3d 3e f5 8a 3d 8c 04 81 3d 17 d1 91 3d
       0.055342052 0.067850575 0.062996954 0.07119959
000030 74 89 97 3d 54 27 83 3d 25 08 97 3d 91 73 60 3d
       0.07399264 0.064039856 0.073746 0.054797713
000040 fd 85 87 3d f5 ab 90 3d a4 6f 79 3d f8 ec 8b 3d
       0.06617353 0.07064048 0.060897484 0.068323076
000050 f8 bd 2d 3d 45 a4 5d 3d 17 e9 6e 3d b2 9a 59 3d
       0.042417496 0.054111738 0.05832776 0.053126045
000060 eb 90 6b 3d 08 98 2e 3d b7 1a 58 3d ce ff 44 3d
       0.05751125 0.042625457 0.052759852 0.048095517
000070 3d 7c 13 3d 1d fa 30 3d 82 55 33 3d 67 c1 4d 3d
       0.036007155 0.043207277 0.04378272 0.05023327
000080 56 ed 31 3d 9b 4d 0a 3d 94 cc 3a 3d 11 c9 3a 3d
       0.04343923 0.033765417 0.045605257 0.045601908
000090 d8 bb 50 3d aa 9b 59 3d 1f e2 2b 3d 83 7e 4e 3d
       0.05096039 0.05312697 0.041963693 0.05041362
0000a0 a4 a2 19 3d 4f b2 3b 3d 59 8f 4b 3d fd 70 22 3d
       0.03750862 0.045824345 0.049697254 0.039658535
0000b0 de 7a 44 3d ef b4 d6 3c 00 24 16 3d 5d 7e 25 3d
       0.047968738 0.026209323 0.036655426 0.040403713
0000c0 0f a0 0e 3d e1 52 27 3d 0b 36 3b 3d 2d 42 5e 3d
       0.034820613 0.040850524 0.045705836 0.05426233
0000d0 6a 40 44 3d a3 fd 0c 3d 68 3b 2e 3d f8 36 2f 3d
       0.047912993 0.034421574 0.042537123 0.04277703
0000e0 04 c9 3e 3d 09 88 15 3d bd 56 db 3c 53 51 27 3d
       0.046578422 0.036506686 0.026774758 0.04084904
0000f0 b4 6a 30 3d 09 11 41 3d 6a ad 42 3d 46 38 18 3d
       0.04307051 0.047135387 0.04752866 0.03716304
000100 74 18 3a 3d 96 1b 16 3d 29 72 2e 3d 74 15 3f 3d
       0.045433477 0.0366474 0.04258934 0.04665132
000110 df 9e 1c 3d 50 4c 37 3d ce 3e d0 3c 7a c1 0b 3d
       0.03823745 0.04475051 0.025420573 0.03412006
000120 d4 ef 1e 3d 01 96 09 3d 5f 9d 1a 3d e3 20 0a bd
       0.038802937 0.03359032 0.037747737 -0.03372277
000130 68 4d e8 bc a4 e1 bd bc 03 59 9f bc af 19 9c bc
       -0.028357223 -0.023178883 -0.019451624 -0.019055216
000140 40 fc 15 bd ed ca 12 bd c1 e1 f3 bc 11 95 b3 bc
       -0.036617517 -0.035838056 -0.029770734 -0.021921666
000150 85 07 b5 bc d1 2d 2e bd 8b 52 2f bd d7 e2 1e bd
       -0.022098312 -0.042524163 -0.04280333 -0.03879055
000160 21 47 df bc ca af ba bc 8a d7 42 bd 84 c0 59 bd
       -0.027255597 -0.0227889 -0.047568835 -0.053162113
000170 81 14 43 bd 13 77 f8 bc 7a d4 b6 bc 33 0b 33 bd
       -0.047626976 -0.030330217 -0.022318114 -0.043711852
000180 93 4d 57 bd c6 8c 47 bd 30 67 0f bd 9d 58 c8 bc
       -0.052564215 -0.048718236 -0.035010517 -0.024456317
000190 40 48 b1 bc b9 8b 86 bc c0 81 50 bc 97 99 15 bc
       -0.021640897 -0.016424047 -0.012726247 -0.009130857
0001a0 37 be 03 bc 03 f0 c7 bc ac da bf bc 76 b3 97 bc
       -0.008040956 -0.024406439 -0.0234197 -0.01851819
0001b0 c4 33 2b bc fc 6c 11 bc 5c 54 f0 bc c3 6e ea bc
       -0.010449354 -0.008876082 -0.0293371 -0.028617268
0001c0 8d 62 cd bc df 03 67 bc 1e 76 16 bc 0c 7f 08 bd
       -0.025071407 -0.014100044 -0.009183435 -0.033324286
0001d0 14 f8 15 bd c4 4a 04 bd d9 98 8e bc 6c e1 2c bc
       -0.03661354 -0.032297865 -0.017406868 -0.010551792
0001e0 13 60 f6 bc a5 ae 13 bd aa 33 07 bd 85 78 b4 bc
       -0.030075109 -0.036055226 -0.033008255 -0.022030124
0001f0 0b 0f 5b bc 5c 51 b7 bc b5 b2 95 bc d1 ab 6e bc
       -0.013370286 -0.022377662 -0.01827369 -0.014567331
000200 d4 69 25 bc 7e 2c 08 bc af db b6 bc 52 04 ad bc
       -0.010096032 -0.008311389 -0.02232155 -0.021120224
000210 d5 f4 86 bc d4 ad 0e bc 44 5e ce bb 1e 49 d5 bc
       -0.016474167 -0.008708436 -0.0062978584 -0.026035842
000220 f2 a3 d0 bc 90 a2 ac bc 36 2a 2f bc 3e f5 a6 bb
       -0.0254688 -0.02107361 -0.010691216 -0.005095153
000230 a8 83 ed bc 14 1c 05 bd 2a a0 de bc e5 af 53 bc
       -0.028993443 -0.03249748 -0.027175982 -0.0129203545
000240 93 8f d9 bb 65 b8 c4 bc be 23 fb bc f7 82 e0 bc
       -0.00663943 -0.024013707 -0.030656692 -0.027406199
000250 e2 2d 8f bc 0c 78 16 bc 5b 2c da ba 39 8f 72 ba
       -0.017477933 -0.009183895 -0.0016645299 -0.0009252909
000260 98 42 b2 b9 ed 12 a3 38 23 bb 6f b6 68 49 c7 ba
       -0.00034000422 7.775971e-05 -3.5722703e-06 -0.0015204372
000270 58 d1 dd ba a3 8e 69 ba 7a fd 1c 3a 6d dd 80 3a
       -0.0016923351 -0.0008909499 0.00059886987 0.0009831615
000280 f5 ff 52 bb d5 cf 07 bb 17 e0 56 ba 09 77 1f 38
       -0.003219602 -0.0020723243 -0.0008196844 3.8019414e-05
000290 f0 ab 1f 3a d8 bb b5 bb 7d c9 6e bb b6 d9 08 bb
       0.00060909893 -0.0055460744 -0.0036436014 -0.002088172
0002a0 20 28 70 ba ec ae d0 b8 59 e5 05 bc b6 45 fa bb
       -0.00091612525 -9.9507946e-05 -0.0081723565 -0.0076377047
0002b0 0b 3b d5 bb 7c d8 42 bb 68 03 1e ba 1e 43 4a bb
       -0.0065072826 -0.0029731086 -0.0006027729 -0.003086276
0002c0 c8 d7 18 bb 36 47 de ba 8b c7 7f ba c2 7a 85 ba
       -0.0023321975 -0.0016958478 -0.0009757212 -0.0010183679
0002d0 b5 0c 39 bb 6a bb 31 bb 3b 20 fd ba aa f9 a2 b9
       -0.0028236334 -0.0027119764 -0.0019311974 -0.00031085062
0002e0 40 d4 18 38 2e 0d 8b bb ba 20 35 bb c0 61 d0 ba
       3.6437297e-05 -0.0042435145 -0.0027637915 -0.0015898272
0002f0 de d8 33 ba 59 c8 22 b9 69 23 ca bb 2b 58 83 bb
       -0.0006860624 -0.00015524159 -0.006168772 -0.004008313
000300 64 8b 29 bb 81 93 b5 ba 00 10 16 ba 7f ab 0a bc
       -0.0025870437 -0.0013853164 -0.000572443 -0.008463739
000310 92 8e f8 bb d4 9e d8 bb 63 0a 5f bb b0 a8 81 ba
       -0.007585355 -0.0066107307 -0.003403329 -0.0009892192
000320 52 26 68 bb d5 1b 27 bb 11 b6 f6 ba 1a b6 94 ba
       -0.0035423231 -0.0025498767 -0.001882257 -0.0011345774
000330 5c 2c ad ba df ee 5f bb 51 c8 4d bb b8 c6 1b bb
       -0.0013212073 -0.0034169478 -0.0031399915 -0.0023769569
000340 21 d2 31 ba 16 ba 81 b9 77 35 9d bb 0e 66 56 bb
       -0.0006783326 -0.00024743442 -0.0047976333 -0.0032714638
000350 cf 98 0a bb 54 34 8a ba 4a 43 de b9 ad d2 d5 bb
       -0.002114821 -0.001054416 -0.00042393274 -0.0065253587
000360 e6 ab 8c bb 2e 88 3c bb 5b 68 dc ba ac a3 80 ba
       -0.004292953 -0.0028767693 -0.0016815768 -0.0009814403
000370 72 08 08 bc 7b 5d ee bb b9 d2 d2 bb fb d3 63 bb
       -0.008302795 -0.0072743273 -0.0064338115 -0.0034763801
000380 b5 7a b0 ba d8 a8 84 3e 65 9f 90 3e 4f a6 9e 3e
       -0.0013464304 0.25910068 0.28246608 0.30986258
000390 ee 54 95 3e 60 c3 8e 3e 1d 86 85 3e 4d 99 8a 3e
       0.2916636 0.27883434 0.26078883 0.27070084
0003a0 c4 8c 9b 3e c8 20 a5 3e b2 58 99 3e 77 2c 79 3e
       0.30380833 0.32251573 0.29950482 0.24333368
0003b0 88 2d 8a 3e 19 29 93 3e 91 e4 9f 3e 02 d0 a5 3e
       0.26987863 0.28742293 0.3122907 0.3238526
0003c0 d9 e5 5f 3e e8 ef 87 3e 7f ad 8a 3e 3b e0 98 3e
       0.21865024 0.2655022 0.27085492 0.29858574
0003d0 63 fc a2 3e a9 21 5d 3e fc 10 84 3e eb 22 82 3e
       0.3183318 0.21594872 0.25794208 0.25417265
0003e0 ca f9 92 3e f4 f7 98 3e 7b 15 39 3e 92 86 55 3e
       0.287062 0.29876673 0.180746 0.20852116
0003f0 ff 37 6e 3e e1 a5 5b 3e 62 ae 54 3e 44 95 33 3e
       0.23263548 0.21449997 0.20769647 0.17537409

exp_avg_sq f4 [6, 3, 5, 5]
000000 4a ce 01 3e 00 83 06 3e 42 d5 e9 3d ca 51 d8 3d
       0.1267635 0.1313591 0.11417629 0.10562475
000010 08 a6 e2 3d d5 2f de 3d 67 1c e5 3d 31 e8 ce 3d
       0.11066824 0.10848967 0.11187058 0.10102881
000020 b2 26 c4 3d 79 94 d4 3d e1 b1 c4 3d f9 2f c7 3d
       0.09577693 0.103798814 0.0960424 0.09725947
000030 a9 0f c9 3d 29 de ce 3d 3e 8a e3 3d 1b aa cf 3d
       0.0981744 0.101009674 0.11110352 0.10139867
000040 72 15 db 3d 0e cf e8 3d ff cb ef 3d 7e fc fe 3d
       0.1069745 0.113676175 0.11708831 0.12450503
000050 75 7c e5 3d 67 d0 fb 3d 6e 0b 07 3e e8 ef 0c 3e
       0.11205379 0.12295609 0.13187954 0.13763392
000060 5a e8 10 3e 0a bb f6 3d 5d 8f ff 3d b2 e7 db 3d
       0.14151135 0.120473936 0.12478516 0.10737552
000070 8a c5 c9 3d 27 a1 d2 3d f8 43 d1 3d a8 f1 d7 3d
       0.09852131 0.102846436 0.10218042 0.10544139
000080 9b 52 c1 3d a7 80 b5 3d 32 f6 c2 3d 38 2d ba 3d
       0.09439584 0.08862429 0.09519614 0.09090656
000090 f7 ea bb 3d ff f0 bd 3d 19 ee c1 3d c4 32 d3 3d
       0.09175675 0.09274482 0.09469242 0.10312417
0000a0 d8 c1 c6 3d c3 17 d0 3d 70 52 dd 3d c2 7d e2 3d
       0.097049415 0.10160782 0.10806739 0.11059143
0000b0 6c 3b ef 3d 9d d2 db 3d 8a 79 ef 3d a5 49 00 3e
       0.11681256 0.10733531 0.116931036 0.12528093
0000c0 94 43 05 3e 56 47 08 3e 38 cc e7 3d 9f 25 f1 3d
       0.1301406 0.13308463 0.113182485 0.11774754
0000d0 4e 30 cf 3d cf d6 bc 3d 3c 73 c4 3d b2 ba c3 3d
       0.10116635 0.09220659 0.09592292 0.09557094
0000e0 a4 50 cb 3d 28 d8 b4 3d 67 04 a9 3d 2a 72 b5 3d
       0.0992749 0.08830291 0.08252793 0.08859666
0000f0 0a ef ad 3d 63 3d b0 3d f3 f1 b0 3d f6 6c b4 3d
       0.08492859 0.086054586 0.08639898 0.08809845
000100 2d b7 c4 3d 75 e1 b8 3d 4c d4 c1 3d 5b 80 cd 3d
       0.096052505 0.090273775 0.094643205 0.100342475
000110 42 8d d2 3d f0 a8 dd 3d ef fb ca 3d ff 05 dd 3d
       0.10280849 0.10823238 0.09911334 0.10792159
000120 38 57 ec 3d dc ef f5 3d 6e 30 fb 3d 3d 87 0f 3c
       0.11540073 0.1200864 0.122650966 0.008760271
000130 e2 cc e9 3b 56 3d 8f 3b db 35 45 3b dd 53 32 3b
       0.0071350196 0.0043713255 0.0030091915 0.002721063
000140 3f 59 03 3c 2b c4 f5 3b a4 68 aa 3b 35 a6 7e 3b
       0.008016883 0.0075001917 0.0052004624 0.0038856391
000150 ce dc 77 3b 28 75 10 3c 10 d4 19 3c aa 0c 03 3c
       0.0037820819 0.008816995 0.009388939 0.007998625
000160 97 c3 ca 3b ac c0 9f 3b 1e ec 2a 3c 97 95 3d 3c
       0.006187867 0.004875263 0.010432271 0.0115713095
000170 a7 37 24 3c 3c 99 cb 3b aa 31 75 3b 91 d3 24 3c
       0.010023034 0.0062133353 0.0037413635 0.010060207
000180 7f fa 34 3c 46 e0 10 3c 8c 28 9e 3b c5 ae 41 3b
       0.011046051 0.008842533 0.004826611 0.0029553634
000190 24 71 01 3c 84 41 cd 3b 2d c0 6f 3b 81 a4 26 3b
       0.00790051 0.0062639136 0.0036583052 0.0025427642
0001a0 c8 27 19 3b ca 14 ed 3b e9 4b d7 3b 4a 85 91 3b
       0.0023369659 0.0072351443 0.0065703285 0.004440938
0001b0 a3 bb 61 3b 25 a6 60 3b e0 39 04 3c 7b d6 0a 3c
       0.0034444116 0.0034278717 0.008070439 0.008473988
0001c0 08 0d eb 3b 84 79 ba 3b d4 bf 94 3b af 40 1e 3c
       0.0071731843 0.0056907553 0.0045394693 0.009658976
0001d0 5e 11 2f 3c da c0 15 3c 86 5b b9 3b 42 d4 5c 3b
       0.010685293 0.009140218 0.0056566624 0.0033695851
0001e0 8f b4 17 3c e1 a8 26 3c a9 e2 02 3c d5 db 8b 3b
       0.009259357 0.0101721 0.00798861 0.0042681494
0001f0 af 36 28 3b 74 04 ec 3b 12 fe b6 3b 4f 07 53 3b
       0.002566736 0.0072026793 0.0055844868 0.0032200401
000200 85 c0 13 3b d9 47 0b 3b bf 33 dd 3b 08 9e c6 3b
       0.002254517 0.0021252541 0.0067505534 0.0060613193
000210 50 2e 85 3b 1c b2 52 3b 8c e9 53 3b 0c 97 fb 3b
       0.004064359 0.0032149618 0.003233525 0.0076779183
000220 20 54 03 3c ba 3b dc 3b d2 57 af 3b f8 34 8b 3b
       0.008015662 0.006720987 0.005351045 0.0042482577
000230 83 5c 16 3c 7b 78 25 3c 60 20 0c 3c 6e d3 ab 3b
       0.00917733 0.010099526 0.008552641 0.0052437102
000240 e8 70 48 3b 36 c7 0c 3c 9b 6f 1a 3c f4 14 f1 3b
       0.0030584875 0.008592417 0.009426023 0.007357234
000250 c9 aa 7f 3b 78 1b 17 3b 39 1b 03 37 08 20 77 36
       0.0039011708 0.0023057144 7.814547e-06 3.6824513e-06
000260 8c 4a 90 36 4a 1c 17 37 b0 b5 19 37 e3 8b 14 37
       4.300213e-06 9.006888e-06 9.161813e-06 8.854057e-06
000270 6f 9f 55 36 d7 45 2e 36 20 64 95 36 85 da 01 37
       3.1832276e-06 2.5968673e-06 4.452202e-06 7.739877e-06
000280 58 04 db 37 94 41 d4 36 53 8b ca 35 d7 45 b3 35
       2.6108857e-05 6.3257266e-06 1.5090721e-06 1.3356865e-06
000290 aa 2c 67 36 ac 23 8a 38 a2 83 06 38 34 a9 29 37
       3.444768e-06 6.586997e-05 3.2070682e-05 1.0112581e-05
0002a0 ec f4 2d 36 d9 d8 ad 35 85 dc ee 38 a4 85 be 38
       2.5921572e-06 1.2952615e-06 0.00011389799 9.0847985e-05
0002b0 e6 45 7f 38 eb ab 97 37 f4 f0 a7 36 3e a3 50 37
       6.0861836e-05 1.8080658e-05 5.0050385e-06 1.2435774e-05
0002c0 37 ea d0 36 66 3d ba 36 44 e8 17 37 37 15 0d 37
       6.2261493e-06 5.5503797e-06 9.05438e-06 8.409194e-06
0002d0 b0 7d 5a 37 46 97 b0 36 45 bf 85 36 aa 6f a8 36
       1.30230765e-05 5.2628193e-06 3.9859756e-06 5.0197896e-06
0002e0 c5 df f3 36 aa 70 f5 37 98 58 f6 36 4b d1 17 36
       7.2680145e-06 2.925874e-05 7.341685e-06 2.2622578e-06
0002f0 e2 03 06 36 42 86 7c 36 d0 41 89 38 25 55 03 38
       1.9969816e-06 3.7629075e-06 6.5449276e-05 3.131213e-05
000300 cb ee 2d 37 94 35 58 36 d2 0e de 35 89 57 dc 38
       1.0367202e-05 3.2217695e-06 1.6544602e-06 0.00010506722
000310 4a 5b b2 38 1a 69 72 38 6c 97 92 37 f1 60 96 36
       8.504705e-05 5.779518e-05 1.7475068e-05 4.481634e-06
000320 20 bf 8b 37 52 0b 0f 37 7e 0c d7 36 50 6c 12 37
       1.665909e-05 8.5261e-06 6.4089536e-06 8.727497e-06
000330 82 33 05 37 7b 6d 8c 37 66 09 f8 36 00 ed aa 36
       7.93941e-06 1.6740281e-05 7.39207e-06 5.0939852e-06
000340 87 a4 b1 36 51 84 dc 36 2d a1 f6 37 07 59 0a 37
       5.2941646e-06 6.5719146e-06 2.9400539e-05 8.246169e-06
000350 92 d8 59 36 c6 ea 27 36 2a 2b 7e 36 3a 42 6b 38
       3.246158e-06 2.5021595e-06 3.7874074e-06 5.6090044e-05
000360 b2 2f dc 37 16 34 2a 37 97 26 70 36 9e 7d ff 35
       2.6248254e-05 1.0144917e-05 3.578525e-06 1.903554e-06
000370 96 e3 bf 38 7e 6a 95 38 27 08 4c 38 2a d2 81 37
       9.149981e-05 7.1247094e-05 4.8644983e-05 1.5475864e-05
000380 ef ae 8f 36 43 4e 8f 3e 4c 98 a0 3e 9f 33 a5 3e
       4.282097e-06 0.27989396 0.31366193 0.32265946
000390 4b a5 a1 3e a9 1f 9c 3e df 73 94 3e 6d be a9 3e
       0.3157142 0.30492905 0.28994653 0.33153096
0003a0 b9 a6 b5 3e 56 c7 be 3e 8c d8 b2 3e 30 6f 94 3e
       0.35478762 0.37261456 0.34930837 0.2899108
0003b0 62 c5 b4 3e be 94 bb 3e 36 cd c1 3e a6 77 b8 3e
       0.3530684 0.3663692 0.37851876 0.36028785
0003c0 b9 ff 62 3e 51 91 8f 3e d8 5a 8e 3e 97 99 96 3e
       0.22167863 0.28040555 0.27803683 0.29414055
0003d0 3a da 92 3e 9d 55 17 3e a8 d4 36 3e e4 f4 2a 3e
       0.2868212 0.14778753 0.1785456 0.16694981
0003e0 b3 1f 45 3e 97 68 4d 3e 6c 2b 61 3e 0f c3 80 3e
       0.19250374 0.20059429 0.2198922 0.25148818
0003f0 b6 f0 85 3e 5f f0 81 3e c3 69 79 3e df 88 66 3e
       0.2616021 0.253787 0.24356751 0.2251315

exp_avg f4 [6]
000000 a2 ef 85 3a 4e 2d d4 b9 15 40 8f b8 fe 83 59 3b
       0.0010218511 -0.00040469546 -6.8307076e-05 0.0033190246
000010 c8 0a c9 38 2d 4b 75 ba
       9.586435e-05 -0.00093572104

exp_avg_sq f4 [6]
000000 82 6c 06 37 11 f5 15 35 4f a4 c3 31 5f 32 9d 37
       8.012286e-06 5.5863444e-07 5.6939267e-09 1.8739314e-05
000010 92 f6 08 35 84 58 9a 36
       5.1022755e-07 4.599862e-06
